best_model.pth (torch, 83575 bytes, 7 tensors)

net.0.weight f4 [128, 74]
0	0xbe47c345	-0.19508083
1	0xbc90e822	-0.017688815
2	0x3cec0393	0.028810298
3	0xbcdda490	-0.027056009
4	0x3c0b0f6d	0.0084875645
5	0xbdcc7c8f	-0.09984695
6	0xbbdbed82	-0.0067116627
7	0xbde7c6c5	-0.11317209
8	0xbdb24459	-0.087044425
9	0xbe2f2341	-0.17103292
10	0xbd8c5bb5	-0.06853429
11	0xbda490c9	-0.08035428
12	0x3c8dbe55	0.017302671
13	0xbd97b293	-0.07407107
14	0xbde83912	-0.1133901
15	0x3da94716	0.08265512
16	0xbd6e0f20	-0.058119893
17	0xbe17a296	-0.14808115
18	0xbd998574	-0.07496157
19	0x3d8a6be1	0.067588575
20	0xbe541ce7	-0.2071415
21	0x3e72c9ef	0.23709844
22	0x3e001e86	0.12511644
23	0x3df1b828	0.11802703
24	0x3e099eef	0.13439535
25	0xbde505b7	-0.11182731
26	0xbd0ee834	-0.034889415
27	0x3dbaca85	0.09120659
28	0xbe2109dc	-0.15726417
29	0xbcbcefce	-0.023063567
30	0x3dc1cd45	0.0946298
31	0xbe207711	-0.1567042
32	0xbdd4da32	-0.1039318
33	0xbdcd054b	-0.10010775
34	0x3bb7a36f	0.0056041996
35	0xbdaa209c	-0.08307001
36	0x3d0a9c7d	0.033840645
37	0x3e24d6b8	0.16097534
38	0xbe1d63fd	-0.15370174
39	0x3e34d5bc	0.17659658
40	0xbda74e7a	-0.08169265
41	0xbd7f82bd	-0.06238054
42	0xbdf248b7	-0.118302755
43	0x3e5e3ec3	0.21703629
44	0x3c0d2ed4	0.008617122
45	0xbe1f9ef5	-0.15587981
46	0xbe5a6bc8	-0.21330178
47	0x3db04f2e	0.08608852
48	0xbdf6e98a	-0.12056263
49	0xbd73261f	-0.059362527
50	0x3caebb9e	0.021329697
51	0xbd1c0c6e	-0.03809779
52	0xbe89553d	-0.26822844
53	0x3e06cebf	0.13164805
54	0xbe3a97a0	-0.18221903
55	0xbd8f6371	-0.07001389
56	0xbd2c2419	-0.042026613
57	0xbdcd5f6b	-0.10027965
58	0xbdd257b6	-0.10270636
59	0x3dcf4c23	0.10121944
60	0xbe981c6a	-0.29709178
61	0x3db527bb	0.088454686
62	0x3b812932	0.0039416784
63	0xbe85dcf4	-0.26145136
64	0xbe0a8cfe	-0.13530347
65	0x3de3494b	0.11097964
66	0xbe2b5ab3	-0.16733818
67	0xbe1e8eb9	-0.15484132
68	0xbdb30663	-0.087414525
69	0xbe34dc31	-0.17662121
70	0x3d566264	0.052339926
71	0xbdbb5c08	-0.09148413
72	0x3d9eae2a	0.07748063
73	0x3bfafc3e	0.007659464
74	0xbd83d9f1	-0.064380534
75	0x3c94cb52	0.018163357
76	0xbd39d43a	-0.04536841
77	0xbe1e72d4	-0.15473491
78	0xbea21915	-0.3165976
79	0x3cb53348	0.02211918
80	0x3c5fe79d	0.013666061
81	0x3d274fe8	0.04084769
82	0xbdea51da	-0.11441393
83	0xbdfe1cd0	-0.12407839
84	0xbdd1a744	-0.102369815
85	0xbd6eacc9	-0.05827025
86	0x3e2b8b45	0.16752346
87	0xbe095b32	-0.13413695
88	0x3b0a4fb3	0.0021104633
89	0xbcb3c6dc	-0.02194541
90	0xbd3a7095	-0.045517523
91	0xbe5d52c7	-0.21613608
92	0x3db1c510	0.08680165
93	0x3dbfc84e	0.09364377
94	0x3e011b05	0.12607963
95	0xbde65955	-0.112475075
96	0xbe0d0e6e	-0.13775036
97	0x3e2af88b	0.16696374
98	0x3e734d46	0.23759946
99	0x3d2556c2	0.04036594
100	0x3d464789	0.048408065
101	0x3dda5092	0.10659899
102	0x3e16bb61	0.14719917
103	0x3cc01bf5	0.023450831
104	0x3d34f657	0.04418024
105	0x3e6c5d78	0.2308253
106	0x3dbcfa7d	0.09227464
107	0x3e0df999	0.13864745
108	0x3cd4ebbf	0.025991319
109	0x3d3ae948	0.04563263
110	0x3c9a2de2	0.018820707
111	0xbec79690	-0.38982058
112	0xbd398e42	-0.045301683
113	0x3e2b7472	0.16743639
114	0xbe72ab15	-0.23698075
115	0xbdeb0277	-0.114750795
116	0xbe4a3c8c	-0.1974966
117	0x3d7dec3a	0.06199286
118	0x3dec15b7	0.11527579
119	0xbd4a7705	-0.049429912
120	0xbd107764	-0.03527011
121	0x3dd1c4d5	0.10242621
122	0x3e123ee4	0.14281803
123	0xbe0ce40a	-0.13758865
124	0xbdf3722c	-0.11887011
125	0x3df34ffd	0.11880491
126	0x3de86a7f	0.113484375
127	0x3d89c9f8	0.067279756
128	0x3e2e0c7c	0.1699695
129	0xbd600423	-0.054691445
130	0x3de2b4df	0.11069655
131	0x3e81ce20	0.25352573
132	0xbd45045e	-0.048099868
133	0x3d601055	0.054703075
134	0xbc8db065	-0.017296026
135	0x3d15d99a	0.036584474
136	0x3e1493e7	0.14509545
137	0x3d33833e	0.043826334
138	0xbdcc2af6	-0.09969132
139	0xbc720087	-0.014770634
140	0x3ca226f2	0.019793961
141	0x3c76e37f	0.015068888
142	0xbe484f85	-0.19561584
143	0x3ce66bef	0.028127639
144	0x3d6b55bd	0.057454813
145	0x3d66cb2a	0.056346096
146	0x3d6e95a2	0.05824817
147	0xbd22ee5a	-0.03977809
148	0xbf0932db	-0.53593224
149	0xbb275d3b	-0.0025537747
150	0xbc07be91	-0.008285181
151	0x3d936223	0.071964525
152	0xbe0daeaf	-0.13836168
153	0xbdbf0ee1	-0.0932901
154	0xbd3eef78	-0.046615094
155	0xbe0ffcd8	-0.14061296
156	0xbd799f34	-0.060942844
157	0xbe966446	-0.29373378
158	0xbe8e641e	-0.27810758
159	0xba9ec31c	-0.001211259
160	0x3d87c2b0	0.066289306
161	0x3da75cbc	0.081719846
162	0xbe0eb951	-0.1393788
163	0x3bd6c471	0.0065541794
164	0x3bc83d65	0.0061108344
165	0x3d4103c8	0.047122747
166	0x3e0d2201	0.13782503
167	0x3ccde3c7	0.025133027
168	0xbda33e37	-0.07970851
169	0x3e9c5678	0.3053472
170	0x3ed1d152	0.4098001
171	0xbe73fa80	-0.23826027
172	0x3e28717b	0.1644954
173	0x3dbde255	0.09271685
174	0x3cfe9368	0.031076148
175	0x3d510637	0.051031318
176	0x3dc9a754	0.098463684
177	0xbcc5c33a	-0.024140943
178	0x3d07994c	0.03310518
179	0x3ce7ab58	0.028279945
180	0x3e1858bd	0.14877601
181	0x3dff26fb	0.12458607
182	0xbe48a640	-0.1959467
183	0x3dd61abc	0.10454318
184	0x3dfb50b8	0.12271255
185	0x3e6a3324	0.22871071
186	0x3c981566	0.018564891
187	0x3d0faa1f	0.03507435
188	0x3d92a796	0.07160871
189	0x3d8fbd0f	0.07018482
190	0x3e63d82e	0.22250435
191	0x3e3cb0e8	0.1842686
192	0x3e17a781	0.14809991
193	0xbe2b0127	-0.16699658
194	0x3dffdcc6	0.12493281
195	0x3de4ab8b	0.11165532
196	0xbd96a12b	-0.07354959
197	0x3da7466b	0.08167728
198	0x3dc588ac	0.09645209
199	0xbe4a791c	-0.19772762
200	0x3d96358d	0.07334433
201	0x3e110ca6	0.14164981
202	0xbdf4e562	-0.11957814
203	0xbd6482f4	-0.05578895
204	0xbe404e91	-0.1877997
205	0x3dda60f0	0.106630206
206	0xbe8a9a3e	-0.27070802
207	0x3c0bef0e	0.008540882
208	0x3deb1991	0.11479486
209	0xbe12bb90	-0.14329362
210	0x3df6783f	0.12034654
211	0xbe15b8e3	-0.1462131
212	0x3df682bd	0.12036655
213	0x3e25e6f9	0.1620139
214	0x3db957b1	0.09049929
215	0xbdf87f24	-0.12133625
216	0xbd76c20f	-0.060243662
217	0x3e0d4d1b	0.13798945
218	0x3c89a0d3	0.01680032
219	0x3cc34e63	0.023841089
220	0xbb895d0d	-0.0041920007
221	0xbdddc383	-0.108283065
222	0xbe062431	-0.13099743
223	0xbe309ed0	-0.17248082
224	0x3da9574a	0.08268602
225	0xbd4aa7e9	-0.049476538
226	0xbe60c85c	-0.21951431
227	0x3c38de81	0.011283518
228	0xbd454810	-0.048164427
229	0xbe082f64	-0.13299328
230	0xbd1262bd	-0.035738695
231	0x3e84db53	0.2594858
232	0xbe036214	-0.12830383
233	0xbe060e24	-0.13091332
234	0x3dc14fe2	0.094390646
235	0xbdd7cf31	-0.105375655
236	0x3d4b9ea2	0.04971183
237	0x3d5e3a5d	0.05425488
238	0x3de7a1f1	0.11310185
239	0xbe39e6f5	-0.1815451
240	0x3b836afc	0.0040105563
241	0xbdbdd97e	-0.09269999
242	0x3ef38a03	0.47566232
243	0x3e8116db	0.2521275
244	0xbd63021c	-0.055421934
245	0x3cef803e	0.029235955
246	0xbe33076e	-0.17483303
247	0xbe0067e4	-0.12539631
248	0x3d7080c8	0.058716565
249	0x3da42a13	0.080158375
250	0xbd9147ea	-0.07093795
251	0xbd33d46e	-0.04390376
252	0xbdd27a53	-0.10277238
253	0xbdc9f392	-0.098609105
254	0xbd6329d0	-0.055459797
255	0xbe1ca14f	-0.1529591

net.0.bias f4 [128]
0	0x3db9211c	0.09039518
1	0x3d9e2019	0.07720966
2	0x3e1a72b2	0.15082815
3	0x3cb17651	0.021662863
4	0xbe1682b4	-0.14698297
5	0xbce2472e	-0.027621832
6	0xbd9dc1b1	-0.07702959
7	0xbcc63f7e	-0.024200197
8	0x3d023d06	0.031796478
9	0xbd0f3a44	-0.034967676
10	0x3d34fb71	0.044185106
11	0xbcf58c1c	-0.029974036
12	0xbb52b153	-0.003214915
13	0x3dcc3081	0.09970189
14	0xbdf3dbea	-0.1190718
15	0xbce0b867	-0.02743168
16	0xbe23e57b	-0.16005509
17	0xbca9caad	-0.020726526
18	0xbc57ceb1	-0.013171838
19	0xbe235f01	-0.1595421
20	0x3e04b089	0.12957968
21	0x3d8998fa	0.06718631
22	0x3d53496d	0.051583696
23	0xbd6584c0	-0.056034803
24	0xbe185f95	-0.14880212
25	0x3e13dbed	0.14439364
26	0xbd881f46	-0.0664659
27	0xbd81561e	-0.06315254
28	0x3af89cea	0.0018967662
29	0xbdbb98f1	-0.09160031
30	0xbdd33f8e	-0.103148565
31	0x3cb71542	0.022349004
32	0x3d0e478c	0.0347362
33	0xbdea214d	-0.11432133
34	0xbc01d6ed	-0.007924777
35	0xbe045ad2	-0.1292527
36	0xbda8106d	-0.08206258
37	0xbd6a4567	-0.057195093
38	0xbe1d370a	-0.15353027
39	0xbd602b9e	-0.054729097
40	0xbc92b77e	-0.017909762
41	0xbdee2bc0	-0.116294384
42	0xbe118b1f	-0.14213227
43	0xbe094d25	-0.13408335
44	0x3cadae00	0.021201134
45	0x3d25e2dd	0.040499557
46	0xba09b884	-0.000525363
47	0xbd27eedd	-0.040999282
48	0xbe087395	-0.13325341
49	0xbcaffaa2	-0.021481816
50	0xbe2a6ae4	-0.16642338
51	0x3c9d4e5c	0.019202404
52	0xbcb6ded1	-0.022323044
53	0xbd98e7fd	-0.07466123
54	0x3cff5fa3	0.031173533
55	0xbdc90eb2	-0.09817256
56	0xbdc2c6e5	-0.09510592
57	0xbde77611	-0.11301816
58	0xbd93d966	-0.072192
59	0xbd7fa1d4	-0.06241019
60	0xbdb00fcb	-0.08596762
61	0xbd0e988c	-0.03481345
62	0xbd377d81	-0.044797424
63	0xbde05add	-0.10954831
64	0xbc3cfcce	-0.011534883
65	0x3d400168	0.04687634
66	0xbc6d1d1a	-0.01447227
67	0xbe01af1a	-0.12664452
68	0x3ac36b2a	0.0014909257
69	0x3d8ad359	0.067785926
70	0x3d6073b7	0.054797854
71	0xbe0b9938	-0.13632667
72	0xbd1dd0bc	-0.038529143
73	0x3da10baf	0.078635566
74	0xbe2b6b0c	-0.16740054
75	0xbda8da58	-0.08244771
76	0x3d64eb70	0.055888593
77	0x3d4fab3a	0.050700404
78	0x3d15347b	0.036427002
79	0xbd58d0bb	-0.052933436
80	0x3def0b15	0.116720356
81	0xbd39692d	-0.04526632
82	0xbdf1d9f6	-0.11809151
83	0xbe07bdb2	-0.13255957
84	0xbd4d478b	-0.050117057
85	0xbdfc078e	-0.123061284
86	0x3e03dc5e	0.12877032
87	0x3c42e826	0.011896169
88	0xbde27f32	-0.11059417
89	0x3cc06380	0.023484945
90	0x3c62461d	0.013810662
91	0xbd45b0a7	-0.048264172
92	0xbddaca97	-0.10683172
93	0xbd967430	-0.0734638
94	0x3bb3ef95	0.005491207
95	0xbdacbcc1	-0.084344395
96	0xbdcc55d4	-0.09977308
97	0x3e28e771	0.16494538
98	0xbdd624aa	-0.10456212
99	0xbdf738ba	-0.120713666
100	0xbcb524d5	-0.02211229
101	0xbd89a85b	-0.067215644
102	0xbc5475ef	-0.012967571
103	0x3dd66470	0.10468376
104	0xbd12a716	-0.035803877
105	0xbd3557ad	-0.044273067
106	0xbddf7a84	-0.1091204
107	0xbdee0736	-0.11622469
108	0x3dcfe933	0.10151901
109	0xbdb243c8	-0.087043345
110	0x3d057613	0.032583307
111	0x3d237b78	0.03991267
112	0xbd87afbd	-0.06625316
113	0xbca1226a	-0.01966973
114	0x3d60e862	0.054909118
115	0xbcc30bde	-0.02380937
116	0x3d07f64e	0.03319388
117	0xbd3ede40	-0.046598673
118	0xbd4e5e69	-0.050383005
119	0xbcb359fc	-0.021893494
120	0xbdf724c0	-0.120675564
121	0xbd76d007	-0.060256984
122	0x3d5e34cb	0.054249566
123	0xbd1600b1	-0.036621753
124	0x3bff30e2	0.0077878097
125	0xbd5b988a	-0.05361227
126	0xbd94260a	-0.07233818
127	0xbd2fc92f	-0.042916473

net.3.weight f4 [64, 128]
0	0xbd342b8b	-0.04398684
1	0xbdda6761	-0.10664249
2	0x3d995191	0.07486261
3	0x3d068790	0.032844126
4	0x3d92db03	0.071706794
5	0xbd83cf5c	-0.06436035
6	0xbc3b95da	-0.011449302
7	0xbd57db55	-0.052699406
8	0xbd584e05	-0.05280878
9	0x3d826212	0.06366362
10	0xbdd499ab	-0.10380872
11	0x3d96c083	0.073609374
12	0xbcf50153	-0.029907858
13	0xbc45a357	-0.012062869
14	0xbd62a415	-0.055332262
15	0x3dc7bd41	0.09752894
16	0x3d97f1ef	0.07419192
17	0xbb99fef8	-0.004699584
18	0xbbae91c3	-0.0053274347
19	0xbc195c74	-0.009360421
20	0x3d8339e9	0.0640753
21	0x3d572b57	0.052531566
22	0xbd190761	-0.037360553
23	0xbd3c06d5	-0.045904953
24	0xbd6b60c8	-0.057465345
25	0xbe38b1fd	-0.18036647
26	0x3c22757f	0.009915709
27	0xbd3c8754	-0.046027496
28	0x3b9dedbc	0.0048196
29	0xbd55942d	-0.052143265
30	0x3cf3bcbf	0.029753087
31	0xbb939388	-0.004503671
32	0x3da57c99	0.08080406
33	0x3d33b56e	0.043874197
34	0xbcc772a9	-0.024346666
35	0x3cbc56e9	0.02299066
36	0x3dada126	0.08478002
37	0x3d123a41	0.035700087
38	0xbd43bc88	-0.04778722
39	0xbd66d5fd	-0.05635642
40	0x3cec397b	0.028836003
41	0x3d74d5d1	0.059774224
42	0xbbe4ac04	-0.0069785137
43	0xbc68b09b	-0.014202262
44	0xbd20ab51	-0.03922588
45	0xbc234193	-0.009964365
46	0xbb3475cc	-0.0027536033
47	0x3d177331	0.03697509
48	0x3abe04d6	0.0014497291
49	0x3ce0eb86	0.027456056
50	0x3e142d21	0.1447034
51	0xbc5c7c7d	-0.013457415
52	0xbd0803d4	-0.033206776
53	0x3d52a0ea	0.05142299
54	0xbd628472	-0.05530209
55	0xbd2774b0	-0.040882766
56	0xbccd479d	-0.025058562
57	0xbb17ce78	-0.0023163836
58	0x3c262ce1	0.010142536
59	0xbd3f21b7	-0.046663012
60	0xbd2667e8	-0.040626436
61	0xbbe73c8c	-0.0070567783
62	0x3cb44f7d	0.02201056
63	0x3d2d17da	0.042259075
64	0x3c140f28	0.009036817
65	0x3c49f676	0.012326827
66	0x3cdf3c81	0.02725053
67	0x3d6b4ad5	0.057444412
68	0x3d4a45f5	0.049383122
69	0x3d47d255	0.048784573
70	0xbd9448a9	-0.07240421
71	0x3ca86612	0.020556483
72	0x3cb54c06	0.022130977
73	0xbdc627ca	-0.09675558
74	0x3e2e360b	0.17012803
75	0x3d5ac54f	0.053410824
76	0x3bbd6151	0.0057794233
77	0x3d21c052	0.03949005
78	0xbd42063a	-0.04736922
79	0xbd943fa4	-0.07238701
80	0xbdc3c4c3	-0.09559014
81	0xbd2093c6	-0.039203428
82	0x3c8d097b	0.017216435
83	0x3c319c4a	0.010840485
84	0xbd5ff6a6	-0.05467858
85	0x3e4fcf8f	0.20294021
86	0xbd5e6bc8	-0.054302007
87	0x3da3e633	0.080028914
88	0x3d7f362a	0.062307514
89	0x3cb75e88	0.022383943
90	0x3d27e41d	0.04098903
91	0xba85057a	-0.0010148727
92	0x3cec4166	0.028839778
93	0x3c71461b	0.014726187
94	0xbccf1f0b	-0.025283357
95	0x3cfe7a48	0.031064168
96	0x3d13e6b1	0.036108676
97	0xbd89a9b6	-0.06721823
98	0xbc2102ac	-0.009827297
99	0xbc9d468e	-0.019198682
100	0xbd337819	-0.043815706
101	0xbcc81f5b	-0.024429014
102	0x3c1d2aa3	0.009592685
103	0x3ae228e3	0.0017254617
104	0xbd8e9000	-0.069610596
105	0xbd1eedd6	-0.038801037
106	0x3da4156b	0.08011898
107	0xbd1e840a	-0.03870014
108	0xbbb4faf2	-0.005523079
109	0xbd7a161d	-0.061056245
110	0xbd9eb4ff	-0.07749366
111	0x3d7ac05f	0.061218616
112	0x3dbc516d	0.09195218
113	0xba0cdadc	-0.0005373189
114	0xbda3b7be	-0.079940304
115	0x3c7278d3	0.014799315
116	0x3dd6ac58	0.10482091
117	0xbd80e4f4	-0.06293669
118	0x3d8a6505	0.06757549
119	0x3da58851	0.08082641
120	0xbd640206	-0.055665992
121	0x3dcd1857	0.10014408
122	0xbc869e6e	-0.016432967
123	0x3d2c3a4d	0.042047787
124	0x3dd4ccca	0.10390623
125	0xbd8567f0	-0.06513965
126	0xbd87ab35	-0.06624452
127	0xbd37e77a	-0.044898488
128	0xbd877b11	-0.0661527
129	0xbdb7fefc	-0.08984181
130	0xbc13fe1d	-0.009032753
131	0x3d3d2f24	0.046187535
132	0xbdd87402	-0.10569002
133	0x3d26ae14	0.040693358
134	0xbb9452e6	-0.004526484
135	0x3cb3f733	0.02196846
136	0xbd8c74f5	-0.06858245
137	0x3c745273	0.014912236
138	0xbdbc1d49	-0.09185273
139	0xba07cecc	-0.00051806564
140	0xbd890b87	-0.06691652
141	0xbe2529d0	-0.16129231
142	0xbd1c439c	-0.038150415
143	0xbbb4a687	-0.0055130157
144	0xbc7d33c5	-0.015454237
145	0x3c3f2933	0.0116675375
146	0xbdc32d7f	-0.09530162
147	0x3c0dee06	0.008662706
148	0xbd7271b3	-0.059190463
149	0xbca2f296	-0.019891065
150	0xbcffe2d0	-0.031236082
151	0xbc9e9b33	-0.019361114
152	0xbb02ed36	-0.0019977815
153	0x3d4abfb6	0.049499236
154	0x3ca90b39	0.020635234
155	0xbd13d610	-0.036092818
156	0x3d88d8d3	0.06681981
157	0xbc86403d	-0.016388053
158	0xbc1a2f1c	-0.009410646
159	0x3c0457a7	0.008077539
160	0x3c6dabd0	0.014506295
161	0xbceae57b	-0.028673878
162	0xbd56c949	-0.052438054
163	0x3bed0092	0.007232734
164	0xbc11c4b0	-0.008896992
165	0x3d25195d	0.04030739
166	0x3d97191e	0.073778376
167	0xbd7b7ac2	-0.061396368
168	0xbd7cb941	-0.06170011
169	0x3dbcecc9	0.09224851
170	0x3de66fd5	0.11251799
171	0x3db2ea5d	0.087361075
172	0xbd26dc3e	-0.040737383
173	0xbd8fc333	-0.07019653
174	0x3dae2ae5	0.08504275
175	0x3c9c5bab	0.01908668
176	0xbd1332bf	-0.035937067
177	0xbd0ed033	-0.034866523
178	0xbc6eb1a5	-0.014568721
179	0xbd154a0b	-0.036447566
180	0xbd3f3e48	-0.046690255
181	0xbcb575b4	-0.022150852
182	0x3d36b0f0	0.044602334
183	0xbcc13a47	-0.02358736
184	0xbdc20cb6	-0.09475081
185	0x3d3d6451	0.046238247
186	0xbdae9ccd	-0.08526001
187	0x3c002ea7	0.007823623
188	0xbd220d15	-0.039563257
189	0x3d9df8a3	0.07713439
190	0x3d892c1f	0.066978686
191	0x3cc3b280	0.023888826
192	0xbe074462	-0.1320968
193	0xbc8cc1cb	-0.017182251
194	0xbcb7e9d8	-0.022450373
195	0xbddb6cd7	-0.10714119
196	0xbd448e34	-0.047987178
197	0xbd06d393	-0.032916617
198	0xbd000114	-0.03125103
199	0x3d81caf3	0.063375376
200	0x3c85dc49	0.016340392
201	0xbdf59b4f	-0.119925134
202	0xbe00a4be	-0.12562844
203	0x3c14e0b5	0.009086777
204	0x3d20100f	0.039077815
205	0xbd92508e	-0.07144271
206	0xbd5d97a5	-0.054099698
207	0x3d5772fb	0.05259989
208	0xbda8c9fa	-0.08241649
209	0xbdbf75f4	-0.0934867
210	0x3c73965f	0.014867394
211	0x3d4c25e5	0.049840827
212	0x3d35037a	0.04419277
213	0xbd020d0c	-0.031750724
214	0xbd65fd79	-0.056149933
215	0x3ce87529	0.028376179
216	0xbd33fafa	-0.04394052
217	0x3c01acfd	0.007914779
218	0x3d0d2fe4	0.0344695
219	0xbc4c1788	-0.012456782
220	0x3cb29cfc	0.021803372
221	0xbda86c69	-0.082238026
222	0x3cbcb262	0.023034278
223	0xbda91f67	-0.08257943
224	0xbda85e42	-0.08221103
225	0xbdedd8a5	-0.11613587
226	0xbd798dc4	-0.060926214
227	0xbd8717db	-0.06596347
228	0xbd164747	-0.03668907
229	0x3d90a387	0.0706244
230	0x3da5c995	0.08095089
231	0xbd586984	-0.052835003
232	0xbdef56ef	-0.11686503
233	0xbe2fd5e0	-0.1717143
234	0xbdd428b7	-0.10359328
235	0xbd593eb6	-0.05303832
236	0xbdb94031	-0.09045447
237	0xbd4a6d23	-0.049420487
238	0x3e173dc1	0.14769651
239	0xbdc5f512	-0.09665884
240	0x3dc74802	0.09730531
241	0x3d6ce901	0.057839397
242	0x3d66d881	0.056358818
243	0xbdbfdb53	-0.09368005
244	0x3c0eeace	0.008722974
245	0xbd9ba6e7	-0.076001935
246	0xbd17188b	-0.03688864
247	0xbcf0d728	-0.02939947
248	0xbd8b3cbc	-0.067986935
249	0xbd185b85	-0.037196655
250	0xbe04cd36	-0.12968907
251	0x3d3f7354	0.046740845
252	0x3c094516	0.008378288
253	0x3b82b0cb	0.0039883605
254	0xbd9612d4	-0.0732781
255	0x3d4b4083	0.04962207

net.3.bias f4 [64]
0	0xbd58936d	-0.05287497
1	0xbc7e6278	-0.0155264065
2	0x3ab5c3cb	0.0013867555
3	0xbd7722b5	-0.060335834
4	0xba9926d4	-0.0011684545
5	0xbd1204f2	-0.035649247
6	0xbc3b7415	-0.01144125
7	0xbd27963a	-0.04091475
8	0xbdbac389	-0.091193266
9	0x3d8e2a07	0.0694161
10	0xbd484575	-0.048894364
11	0xbd890d71	-0.06692017
12	0xbc78d5cd	-0.015187693
13	0xbd43fcd1	-0.047848526
14	0x3d084a1e	0.03327381
15	0xbd528a3b	-0.051401358
16	0xbc2ede2a	-0.010673085
17	0xbcf554d6	-0.02994768
18	0xbda2267e	-0.07917498
19	0xbcc70966	-0.024296474
20	0xbd51fab0	-0.051264465
21	0xbd39608f	-0.0452581
22	0xbc2bbd4c	-0.010482144
23	0x3d624305	0.055239696
24	0xbcedd0bd	-0.029030198
25	0xbd1b5e7a	-0.037931897
26	0x3d3521b4	0.044221595
27	0xbdc7adf7	-0.09749978
28	0xbdf1ce27	-0.118068986
29	0x3de3add0	0.111171365
30	0x3c6f3630	0.014600322
31	0x3d49182b	0.049095314
32	0xbae6cee1	-0.0017609262
33	0x3cd8723d	0.02642166
34	0xbb6467d8	-0.0034851935
35	0x3da68d4f	0.08132421
36	0x3ddbca61	0.1073196
37	0x3cef5634	0.02921591
38	0xbcb04037	-0.021514995
39	0x3d68a55a	0.056798317
40	0xbcf0ff99	-0.029418753
41	0xbb723375	-0.003695694
42	0x3cf6358d	0.030054832
43	0x3d3c298c	0.04593806
44	0xbc143a8f	-0.009047165
45	0x3bca6e48	0.0061776973
46	0xbd008215	-0.031374056
47	0x3d1c727d	0.038195122
48	0x3da7d95e	0.081957564
49	0xbe26229d	-0.16224141
50	0xbdae5583	-0.08512404
51	0x3de61132	0.112337485
52	0xbcc84fa1	-0.024452033
53	0xbdace70d	-0.08442507
54	0x3ba31333	0.004976654
55	0x3b27d1f3	0.0025607317
56	0xbd029c08	-0.031887084
57	0xbd042e98	-0.032270998
58	0xbe0bc2fb	-0.13648598
59	0x3d172970	0.036904752
60	0xbdcf141a	-0.10111256
61	0xbdc0d1b0	-0.09414995
62	0xbd14e3ed	-0.03635018
63	0xbd551a99	-0.05202732

net.6.weight f4 [32, 64]
0	0xbc2bd312	-0.010487335
1	0x3d7e5109	0.062089
2	0xbe05c85c	-0.13064712
3	0x3dbc351a	0.09189816
4	0xbc9ab1a9	-0.018883543
5	0x3dcadb79	0.09905142
6	0x3d318f55	0.043349583
7	0xbcb49b49	-0.022046702
8	0xbc666f46	-0.014064616
9	0xbd9ddd09	-0.07708175
10	0x3db6ee9a	0.089322284
11	0x3de8c7d2	0.11366238
12	0xbc89a85a	-0.01680391
13	0xbe0a04e0	-0.13478422
14	0xbd38643c	-0.045017466
15	0x3d82f1b8	0.063937604
16	0x3dbccb29	0.09218437
17	0x3d443075	0.047897775
18	0xbce05062	-0.02738208
19	0x3dfe4537	0.124155454
20	0x3d3a0233	0.045412254
21	0xbe5b1705	-0.213955
22	0xbcc177bd	-0.023616666
23	0x3ca80d19	0.020514058
24	0xbcda1cc7	-0.02662505
25	0xbd4a25b3	-0.04935236
26	0xbdb7ebf1	-0.08980549
27	0xbd13543b	-0.035969
28	0x3c2082af	0.009796782
29	0xbd52fdcd	-0.051511575
30	0xbd37faa1	-0.044916753
31	0x3dea2331	0.114324935
32	0x3d506d36	0.0508854
33	0x3db42a72	0.08797158
34	0x3d81dc6a	0.06340869
35	0xbd0bf499	-0.034168813
36	0x3c21e6fd	0.009881732
37	0xbd52c0e4	-0.051453486
38	0x3c1b5c62	0.009482475
39	0x3db1eeae	0.08688103
40	0xbd2674cf	-0.04063874
41	0xbb7b75cf	-0.003836978
42	0xbd762e9c	-0.060103044
43	0xbe863e6b	-0.26219496
44	0x3de1cd95	0.1102554
45	0x3d8ff12b	0.07028421
46	0xbc55f8ca	-0.013059804
47	0xbd0ed227	-0.034868386
48	0x3c43572d	0.01192264
49	0x3d9c8658	0.076428115
50	0xbc672b4d	-0.014109445
51	0x3b4a2b10	0.003084842
52	0x3ddbcc40	0.10732317
53	0x3c086da3	0.008326921
54	0x3d75fde6	0.06005659
55	0x3dd7cd95	0.105372585
56	0x3e07f006	0.13275155
57	0x3c383f2a	0.011245528
58	0x3d2b1b71	0.041774217
59	0xbcbe4fef	-0.023231475
60	0xbdd883a0	-0.105719805
61	0xbc642332	-0.013924407
62	0x3df1e84b	0.118118845
63	0xbd0ea78a	-0.034827746
64	0x3d2e5020	0.042556882
65	0x3d528abb	0.051401835
66	0xbd744d95	-0.0596443
67	0xbd74e776	-0.05979105
68	0xbd5242fa	-0.051333405
69	0x3b126cca	0.0022342675
70	0x3da1b069	0.07894976
71	0x3d273f88	0.040832072
72	0x3dbfa603	0.09357836
73	0x3cd00849	0.025394576
74	0xbd8c4279	-0.06848616
75	0xbcbe7ba4	-0.023252316
76	0x3da405d1	0.08008922
77	0x3e91d670	0.28483915
78	0xbdd99e55	-0.106259026
79	0xbc17aff6	-0.009258261
80	0xbdd9a938	-0.10627979
81	0xbdcd13d1	-0.10013545
82	0xbcf6778d	-0.030086303
83	0xbd202b92	-0.039104052
84	0xbe02205b	-0.12707655
85	0xbe1bcdc7	-0.15215217
86	0x3de0dc77	0.1097955
87	0x3d49d542	0.049275644
88	0xbdcac9bb	-0.09901758
89	0x3ab2ee3f	0.0013651325
90	0xbe25c07b	-0.16186707
91	0xbdb32df4	-0.08748999
92	0x3d999d11	0.07500661
93	0xbd0ddb79	-0.034633134
94	0xbdfe1d01	-0.12407876
95	0x3d81bfe9	0.06335432
96	0x3d15d5a4	0.036580697
97	0x3da7df8c	0.08196935
98	0xbd830b00	-0.063985825
99	0xbd85688e	-0.06514083
100	0x3ce21da8	0.027602032
101	0x3c854f8e	0.016273286
102	0xbd0e37c5	-0.034721155
103	0x3c93affb	0.01802825
104	0xbd05d6e5	-0.032675643
105	0xbdc186b8	-0.09449524
106	0xbdf11da3	-0.11773231
107	0xbcd34787	-0.025790943
108	0x3b142d52	0.002261002
109	0xbe0f8492	-0.14015415
110	0xbdf38e38	-0.118923604
111	0x3dbff67b	0.09373184
112	0xbdcef329	-0.10104973
113	0xbb099103	-0.0020990975
114	0xbd941716	-0.07230966
115	0xbe255e53	-0.16149263
116	0x3c550848	0.013002463
117	0x3db3c1de	0.087772116
118	0x3d82c241	0.06384707
119	0x3d3c4277	0.045961823
120	0x3ca71cdd	0.020399505
121	0xbd81b378	-0.06333059
122	0xbde06bec	-0.109580845
123	0xbcb07d75	-0.021544198
124	0xbc8cad67	-0.017172528
125	0xbc47473c	-0.01216298
126	0xbdacad56	-0.08431499
127	0x3da6ef46	0.081511065
128	0xbd8bad50	-0.06820166
129	0xbd063a09	-0.03277019
130	0x3d693f32	0.056945033
131	0xb9122a95	-0.00013939508
132	0x3a950dac	0.0011371872
133	0xbd445b0f	-0.047938403
134	0xbd62ea3a	-0.055399157
135	0xbd84b76d	-0.06480298
136	0x3be368a8	0.006939966
137	0x3c256c35	0.010096599
138	0xbbb46588	-0.0055052675
139	0xbdd9c26c	-0.10632786
140	0xbd1e5d75	-0.038663346
141	0xbdc5242a	-0.09626038
142	0x3c3910da	0.011295522
143	0x3d85192e	0.06498943
144	0x3d9fe524	0.07807377
145	0xbdd93f0c	-0.10607728
146	0x3d3fa4c7	0.046788003
147	0xbc0e9364	-0.008702133
148	0x3dbd56c2	0.09245063
149	0xbda474cf	-0.08030092
150	0x3e081aa3	0.13291411
151	0xbd872935	-0.065996565
152	0xbd2c4a8b	-0.042063277
153	0xbd5006f4	-0.05078788
154	0xbda8da32	-0.082447425
155	0x3dfe50e8	0.124177754
156	0xbd3ab583	-0.04558326
157	0x3a0767d7	0.00051653147
158	0xbd25dd37	-0.04049417
159	0xbd0b2f87	-0.033980872
160	0x3d8edef4	0.06976119
161	0xbbda0d51	-0.0066544195
162	0xbe0b39e5	-0.13596304
163	0x3d887799	0.066634364
164	0xbe03b5d8	-0.12862337
165	0xbdde51da	-0.10855456
166	0x3db7dec4	0.08978036
167	0x3c807b7a	0.015683878
168	0xbce2f660	-0.027705371
169	0x3d95dfea	0.07318099
170	0xbdd38fae	-0.10330139
171	0xbe125205	-0.142891
172	0xbdfe4ce0	-0.124170065
173	0xbde5dd9d	-0.1122391
174	0x3de1c43f	0.11023759
175	0x3d5a055d	0.05322777
176	0xbdd98105	-0.10620312
177	0xbdc24b10	-0.09486973
178	0xbd996a2d	-0.074909545
179	0xbdc5a0d7	-0.096498184
180	0xbbf4eb68	-0.0074743517
181	0xbdaf1595	-0.08549038
182	0xbd362165	-0.04446544
183	0xbd98e74b	-0.07465991
184	0x3d8c8cfa	0.06862827
185	0x3d703023	0.058639657
186	0x3d067be1	0.032832984
187	0x3c90e991	0.017689498
188	0x3dd660ed	0.10467706
189	0xbc810b15	-0.015752355
190	0xbc6bec98	-0.01439967
191	0xbd149c36	-0.036281787
192	0x3d5c2096	0.053742014
193	0xbd9a0d0b	-0.07522019
194	0xbe48e64a	-0.19619098
195	0xbd4d53dc	-0.050128803
196	0xbd181a2a	-0.037134327
197	0x3cdfc6d0	0.02731648
198	0xbdedce1a	-0.116115764
199	0x3dbae9e9	0.09126646
200	0xbcc17210	-0.02361396
201	0xbdad7645	-0.08469824
202	0x3df659b0	0.12028825
203	0xbcbcaaeb	-0.023030719
204	0x3dafd5aa	0.08585675
205	0x3dac11cb	0.08401831
206	0x3d9ec9b8	0.077533185
207	0xbde0d75a	-0.10978575
208	0xbdf43290	-0.119237065
209	0x3b27d8e7	0.0025611462
210	0x3b48e000	0.0030651093
211	0xbd68cff0	-0.05683893
212	0xbccc7d13	-0.024961984
213	0xbe381cf0	-0.17979789
214	0xbd7c9a20	-0.061670423
215	0x3d64fe6b	0.055906694
216	0xbdcffc0e	-0.101554975
217	0xbb9437c0	-0.0045232475
218	0xbc4e4056	-0.012588581
219	0xbc972668	-0.01845093
220	0x3dc202e6	0.09473209
221	0xbdd455ea	-0.10367949
222	0xbdb29ac2	-0.08720924
223	0xbdc3062a	-0.0952266
224	0xbdc7c270	-0.09753883
225	0x3de12fb1	0.109954245
226	0x3db81d2b	0.08989938
227	0x3d50be1e	0.05096256
228	0x3c70f77b	0.014707441
229	0xbe076d06	-0.13225183
230	0xbd5a1720	-0.05324471
231	0x3d8be450	0.068306565
232	0xbd88bf4a	-0.066771105
233	0x3a6bdb70	0.00089972373
234	0xbdc01a1d	-0.09379981
235	0xbe1fad60	-0.15593481
236	0xbdad20aa	-0.08453496
237	0xbd427d91	-0.04748303
238	0xbcdbc5d0	-0.026827723
239	0x3c9475ad	0.018122518
240	0xbd2861c2	-0.041108854
241	0xbcb0a038	-0.021560773
242	0xbcdfa164	-0.027298637
243	0xbe552c40	-0.20817661
244	0x3d6a9ecc	0.057280347
245	0x3dd0d624	0.10197094
246	0x3cf56ae0	0.029958189
247	0x3cc920f0	0.024551839
248	0x3bd1b522	0.0063997665
249	0xbda28162	-0.07934834
250	0x3d8cc364	0.06873205
251	0xbdb9a5d7	-0.090648346
252	0x3d8d9e42	0.06914951
253	0x3d96232b	0.073309265
254	0xbd20df80	-0.039275646
255	0x3dcc74cf	0.09983217

net.6.bias f4 [32]
0	0x3d872c64	0.06600264
1	0xbd22e12a	-0.039765514
2	0xbd529234	-0.05140896
3	0xbe2223eb	-0.15834014
4	0xbdddffd6	-0.108398125
5	0x3d6f6e94	0.058455065
6	0x3d97b9de	0.07408498
7	0x3d802e8f	0.0625888
8	0x3dae578d	0.08512793
9	0x3d9a535d	0.075354315
10	0x3e1680f4	0.14697629
11	0x3d21ecb4	0.03953238
12	0x3d13173b	0.035910826
13	0x3dbc3edf	0.09191679
14	0x3c6d333b	0.014477546
15	0x3da86367	0.082220845
16	0xbd9ba654	-0.07600084
17	0xbdc563c4	-0.096381694
18	0x3cf07a00	0.02935505
19	0xbb5e0a19	-0.003388053
20	0x3e09ecd9	0.13469256
21	0xbc888c77	-0.016668541
22	0xbded4ae6	-0.11586551
23	0x3d2960cc	0.04135208
24	0x3deed77d	0.11662195
25	0xbc535bd8	-0.012900315
26	0x3d24b414	0.0402108
27	0xbca98152	-0.020691548
28	0x3db0fef9	0.08642382
29	0x3e04965d	0.12947984
30	0x3da9f169	0.082979985
31	0xbd7a558d	-0.061116744

net.9.weight f4 [1, 32]
0	0x3da1d694	0.07902256
1	0xbc2697de	-0.010168044
2	0x3e23ccee	0.15996143
3	0xbdb77032	-0.089569464
4	0x3b13cbf1	0.0022551978
5	0x3d95ceb1	0.07314814
6	0x3d8f48c6	0.06996302
7	0x3d6d7c5f	0.057979938
8	0x3db0fe80	0.08642292
9	0x3ddf6117	0.1090719
10	0x3d6e9247	0.05824497
11	0xbdf8983e	-0.12138413
12	0xbd0ff0b5	-0.035141665
13	0x3e1c9419	0.1529087
14	0xbd57ebd5	-0.05271514
15	0x3d84fd89	0.064936705
16	0xbd0554b8	-0.032551497
17	0x3e212323	0.1573606
18	0x3e005348	0.1253177
19	0xbd3937e5	-0.04521932
20	0x3d7567d5	0.059913475
21	0xbd0acb93	-0.03388555
22	0xbcb5d086	-0.022194158
23	0xbd369512	-0.04457576
24	0x3d7f419e	0.062318437
25	0xbd20c9c4	-0.03925492
26	0x3daa8eee	0.08328043
27	0xbd10782e	-0.035270862
28	0x3de66992	0.11250605
29	0x3d83eb28	0.06441337
30	0x3e0ebb63	0.1393867
31	0xbdc4b699	-0.0960514
