best_model.pt (torch, 80565 bytes, 13 tensors)

net.0.weight f4 [128, 74]
00000000: d024 c9bf 8593 443e 42ac 46bf 4f82 29bf
00000010: 3872 6ebe 915c a2bf 72e0 223f a571 40bf
00000020: 56ed aa3b ac5e 47bf 4566 4bbf eb48 48bf
00000030: a355 0c3f 5cf7 7fbe f216 b33e 67f6 5bbf
00000040: c826 643e 5ae4 86be 15ef e13d ffe1 92bd
00000050: 8503 56bf 68b6 953f 60e7 d23e bd03 ccbd
00000060: 189a 813d e355 08bf b5d1 5bbe cbe2 69be
00000070: a812 e03e ca2c 3bbe 0004 623c ddaa f8bd
00000080: 35a0 253e 1038 ae3e 680d a53c 8d10 2e3f
00000090: 349b 2abe 07b6 133f 8e9a 13bf 9966 2c3e
000000a0: e88e 0fbe c6e8 0a3f b087 09bf 5259 5c3e
000000b0: a05c 033e b933 823e 6365 8b3d 794c a53f
000000c0: 893c 00bf 78e0 6ebf 7cba 00c0 8761 973e
000000d0: 7c4d 65be 1499 3a3e 5b12 1bbe 4447 b6be
000000e0: 278a fabf af71 033f b966 09be b7e3 0b3f
000000f0: 40a1 a2be 79f6 0e3f 31f1 49be 33a7 90be
00000100: b493 673d e73a 99bc 7653 a73e b15c 4a3e
00000110: ca30 ef3d b523 fb3e f6fb 05be 8fed 1b3f
00000120: b8fa d23d 1109 04bf 22a4 843f addd 563e
00000130: 0749 043f 775d 8f3d 4561 d9bd 7e86 4a3f
00000140: 6ea8 a1be 80d2 e5be d123 edbe 6a09 aa3f
00000150: dda0 3a3f 7b9d 85be 91c6 17bf 2f2b 6dbd
00000160: e7fa a03f 5f6e 9f3f 6180 953e e87d cf3e
00000170: db92 15bf 2eab 87bf b057 d63e b06d 4fbd
00000180: 53f8 e03e e3c3 bc3d a700 e5be bf7e 12bf
00000190: 8dbe f63d 8c96 0bbe 3da3 ac3e 8371 80bd
000001a0: 2e6a c1bd 5bb1 3a3e 73dd 313e 989d dabd
000001b0: a689 573e 2ce1 27be 29c5 dabe 7b6a babe
000001c0: 843a 2bbb 2af0 f13e 38b1 bc3e 70de b0bf
000001d0: 0d42 2d3f c526 73bf 0bc3 18bf ac9b ee3e
000001e0: 6491 363f 239c 7e3c 4fbf 83bf 6f5f 1b3e
000001f0: 5b0f 4b3d 10d9 0d3e 20f6 95be 41bf a13e
00000200: b990 663d 4018 853e 4471 eb3d efa7 60bf
00000210: cf7d a63e d939 87be 4221 f33d ff0e 0d3f
00000220: 42a1 a03e 2f01 e43e 53fd 093f 2728 0cbd
00000230: b440 d0be fa91 02bf ffdb 3abd 7a5d ecbe
00000240: f02b 813e 0291 563e 9d1d 333e cfee 04bf
00000250: 3bcf 733f 7ecf 293f 481e 7f3f 1daf 373f
00000260: d926 85be 41bf 9c3e 5341 d33e 3047 013f
00000270: 43f2 8d3e eb5f 0a40 f962 813f c1f1 c43e
00000280: 92e3 18be c6f6 c43d 8263 f23d 50c1 853f
00000290: 498a 80bd 92cc 71be b5ec ef3e ab0f 633f
000002a0: d81f cdbd f3f0 d23e bc17 643f cbbf fdbd
000002b0: 31a5 4dbe 406e dcbb 446d 133e af51 6fbe
000002c0: 6193 d83d cb78 353e 7047 75bc 08d9 d5be
000002d0: 7717 bf3b fdb4 2e3d 18ba 2abe 6052 3bbf
000002e0: b6c6 e1be 8785 8fbf 3930 36bf 8097 323d
000002f0: 3ae4 843e 1e13 353f 8bf3 5fbe 58c0 b93e
00000300: eaf3 3dbe e126 d53e c120 163e 6e89 68bf
00000310: 32a8 7bbf cef6 3a3e 8a40 debd f359 893e
00000320: 8bf2 993e d27f 98bf 8bc1 b0bd 321a 3f3d
00000330: e8cc dd3e ca4f e03c 5b8c 91be 9aac 4dbf
00000340: 0e50 babe 93ea 50bf 9146 943e 348a 9b3e
00000350: ddb7 4ebd d146 25be 9777 03bf dbcb 653c
00000360: dff9 913d 7895 adbe 9eb0 ddbe 3fee 13bf
00000370: 3fd5 8fbe d060 b53e 27e4 473f a325 3a3e
00000380: 582d 703e ec9b d3be 1f81 a33e ebf5 b7be
00000390: 07bb 97be fedb 1cbe f8c9 2b3f d300 2340
000003a0: 3260 793e ce8f 2ebf dcdc 46bf 1cab 4e3e
000003b0: 2254 7ebe 15be 9f3f 64a6 a53e f81e 2f3f
000003c0: 2305 3dbf c8bb ecbe e5d9 c53e 849e 92bf
000003d0: 4e05 11bf c199 a33e 45cf c5bd 20c6 483e
000003e0: 1431 e23d 6d32 c5bd 1f86 edbd 6c74 673e
000003f0: 4449 30bf 98a2 12be 0652 edbe d4f1 dc3d
-1.5714359 0.19196899 -0.77606595 -0.6621446 -0.23285758 -1.2684499 0.63623726 -0.7517341
0.005216281 -0.7787883 -0.79452926 -0.78236264 0.5481817 -0.24996704 0.34978443 -0.85922855
0.22280419 -0.26346093 0.110319294 -0.071720116 -0.8359912 1.1696291 0.4119215 -0.099616505
0.06328219 -0.5325605 -0.21466716 -0.22840421 0.43764234 -0.18278804 0.013794899 -0.121419646
0.16174395 0.34027147 0.020147994 0.67994004 -0.16660768 0.57699627 -0.57657707 0.16836013
-0.14019358 0.54261434 -0.5372267 0.21518448 0.12828302 0.25430086 0.06806447 1.2913963
-0.5009237 -0.9331126 -2.011382 0.29566595 -0.22392839 0.18222457 -0.15143721 -0.35601246
-1.9573411 0.5134534 -0.13418092 0.5464434 -0.3176365 0.5584484 -0.19720913 -0.28252563
0.056537345 -0.018704845 0.32680863 0.19761921 0.11679228 0.4905068 -0.13084397 0.6090936
0.10301727 -0.51576334 1.0362589 0.20983 0.5167393 0.07000249 -0.10614256 0.7911147
-0.31573814 -0.4488716 -0.46316388 1.3284123 0.7290171 -0.2609671 -0.59287363 -0.05790251
1.2576569 1.2455558 0.29199508 0.40525746 -0.5842721 -1.0599115 0.41863775 -0.050641716
0.43939456 0.0921705 -0.4472706 -0.5722465 0.120480634 -0.13631648 0.3371829 -0.06271651
-0.0944408 0.18231718 0.17369632 -0.1067459 0.21048602 -0.1639449 -0.42728546 -0.36409363
-0.0026127407 0.47253543 0.36853957 -1.3817883 0.6767891 -0.9498103 -0.5967261 0.46603143
0.713156 0.015540156 -1.0292758 0.15173124 0.04957519 0.13852334 -0.2928934 0.31591228
0.056290362 0.25995064 0.11496213 -0.87756246 0.3251786 -0.26411322 0.11871578 0.5510101
0.3137303 0.44532153 0.5390217 -0.03421798 -0.40674365 -0.5100399 -0.04561996 -0.46165067
0.25228834 0.20953754 0.17491765 -0.51926893 0.95238084 0.6633223 0.9965558 0.71751577
-0.260062 0.30614665 0.41260776 0.5049925 0.27723894 2.1621044 1.0108329 0.38465694
-0.14930561 0.09617381 0.11835386 1.0449619 -0.06276376 -0.23613194 0.4686028 0.8869578
-0.10015839 0.41199455 0.89098716 -0.12390097 -0.20082547 -0.00672701 0.1439715 -0.23371004
0.10574985 0.1772186 -0.014970645 -0.41767144 0.0058316546 0.042653073 -0.16672552 -0.7317257
-0.44096917 -1.1212624 -0.7116733 0.043601513 0.25955373 0.70732296 -0.21870248 0.3627956
-0.18550077 0.41631225 0.14660932 -0.908347 -0.9830352 0.18258211 -0.108521536 0.26826438
0.30067858 -1.1914008 -0.086306654 0.04665584 0.43320394 0.027381796 -0.28427395 -0.80341494
-0.36389202 -0.8160793 0.28960088 0.30378878 -0.050468314 -0.16140296 -0.51354355 0.014025654
0.07127737 -0.33903098 -0.4329881 -0.5778541 -0.2809238 0.35425425 0.7808251 0.1817842
0.23454797 -0.41329896 0.3193445 -0.35929808 -0.29634878 -0.15318295 0.67105055 2.5469253
0.24353102 -0.6818818 -0.77680755 0.2018246 -0.24836782 1.2479883 0.32353508 0.6840663
-0.73835963 -0.46237016 0.38642803 -1.1454625 -0.5664872 0.31953242 -0.09658674 0.19606829
0.11044517 -0.096287586 -0.11597847 0.22603005 -0.68861794 -0.14319837 -0.4635164 0.107883126

net.0.bias f4 [128]
00000000: 2fbc 43be 079c 1fbc 2261 11bf d407 533f
00000010: 0e45 9c3e 9b4c 62be 731b dc3e 720b 4e3f
00000020: 169e 993e a4d6 78bf 4921 083f 3f59 7abe
00000030: b76c 71bf d002 7e3e 21b3 f5be 56aa 24bf
00000040: 7522 953e dbeb 8f3e f83d 633e ff76 a0be
00000050: ca95 60be 4a68 683d f233 e83e 31c7 9f3e
00000060: 2c35 e4be 602b 6bbf 0958 543f 5dbe 43bf
00000070: 0b26 5ebe e84a a7bd 35ea 7e3e bd0a afbf
00000080: a38b 543f 1e1c a13e a755 ebbe 208d d1bc
00000090: e4f1 0dbf f24c 5d3d 8340 e5bd 0938 3d3e
000000a0: eb54 a13d b0d3 25be ef1b d9be 7505 11bf
000000b0: ea0b 8f3f e467 b43e d580 e3be 4cd9 a33e
000000c0: de5a adbe e3ca 6e3e 1768 783e 292b 4bbe
000000d0: fc24 183f 711f bd3e e3b9 62bf 84fa 70be
000000e0: c714 f43e 01f8 343e d409 57bf 559d 01be
000000f0: 6872 d23e 5c68 633f 330c 23bf 7656 dcbd
00000100: 947d b2bf 4870 4aba 7ee5 41be 0eee 043f
00000110: 76a4 7abe 9c5a 0e3f 3998 1e3f fc47 533e
00000120: 4f53 913e ec6e 1abf 16eb 913d 53b0 7abe
00000130: 4b41 473f a6b3 17be d7f2 7f3f 06ea f6be
00000140: 6571 48bd db9d c63f d54f 163e ce21 d9bb
00000150: ac0b cd3e 2563 90bf a53a 903e c2df 093f
00000160: e743 7d3f 33a5 fdbd 03e2 33bf cd86 9f3e
00000170: c4df 02bf 2c36 c7be 7a9a 843e dd02 043e
00000180: 899d 813f 7db1 9d3c ad67 9abe 6b23 323f
00000190: 4291 253e 62c4 a6be 0b86 ecbe e39e 1f3e
000001a0: fc31 f7be 0e1b fa3e 9137 febd 0c44 283f
000001b0: 2c07 3dbf 2564 753e 9526 6abe 1978 dcbe
000001c0: 6fe5 d8bd 73ad c33d acdd 083e 8d66 02bf
000001d0: 8931 2fbe 7562 62be 39f3 0bbf ab3c b5bf
000001e0: 228b e73e c67f e03d 108b 2fbf 8b2e 04bf
000001f0: 171d e63e 13c9 0cbe 522e b0bc 573d 57be
-0.19114755 -0.00974179 -0.5678884 0.8243382 0.30521435 -0.22099535 0.42989692 0.80486214
0.30003422 -0.97202516 0.5317579 -0.24448107 -0.9430651 0.2480576 -0.47988227 -0.6432241
0.2912785 0.2810963 0.22191608 -0.31340787 -0.2193214 0.056740083 0.4535213 0.31206658
-0.44571817 -0.9186306 0.8294683 -0.76462346 -0.216942 -0.08168584 0.2489403 -1.3675152
0.8302557 0.31466764 -0.45963785 -0.025579989 -0.5544722 0.05402846 -0.11193945 0.18478407
0.07877525 -0.16194034 -0.42404124 -0.5664895 1.1175511 0.35235512 -0.4443423 0.32001722
-0.3385839 0.23319583 0.24258457 -0.19840683 0.59431434 0.3693805 -0.8856489 -0.23533064
0.47672102 0.17672731 -0.8399937 -0.12657674 0.4110291 0.88831115 -0.6369049 -0.107586786
-1.3944573 -0.00077224197 -0.189352 0.5192574 -0.244768 0.5560701 0.61951023 0.20632929
0.28383872 -0.60325503 0.07124917 -0.24481325 0.77834004 -0.14814624 0.9997992 -0.4822542
-0.048936266 1.5516924 0.14678891 -0.0066263443 0.40047967 -1.1280257 0.28169742 0.5385705
0.98931736 -0.12385025 -0.7026674 0.31157532 -0.5112269 -0.38908517 0.25899106 0.12891717
1.0126201 0.019249672 -0.30157223 0.69585294 0.16168693 -0.32571703 -0.46196017 0.15587954
-0.48280323 0.48848766 -0.12412942 0.6572883 -0.7383907 0.23963983 -0.2286628 -0.43060377
-0.10590636 0.09554567 0.13365811 -0.5093773 -0.1710874 -0.22107871 -0.54668003 -1.4159139
0.45223337 0.10961871 -0.6857157 -0.5163352 0.4494407 -0.13748579 -0.021506462 -0.21019493

net.1.weight f4 [128]
00000000: 1bbe 263f bfc7 c03f 0c06 0d3f e6fb 893f
00000010: 028a 7f3f 502b c13e e21f 123f 7597 583f
00000020: d05e 303f 4394 b13f cd86 513f bade d13e
00000030: 9004 743f 0d78 523f 540d 743f 6e82 1f3f
00000040: 577d 1c3f a39e 753f a387 8a3f ceea 9d3f
00000050: f221 103f e57e ed3e 8998 8e3f a5bf 833f
00000060: ffae 733f 4c27 0f3f 134e 653f 3617 373f
00000070: 71ac 2d3f b4f2 2e3f f63f 343f 24c9 583f
00000080: c5f9 9a3f ed32 493f 4e8b 2f3f 8a2a 523f
00000090: d797 7a3f ea4e 613f 2140 863f df6b 653f
000000a0: 6595 243f ad3e 2b3f d800 923f 996f 7c3f
000000b0: 81ee a03f fd0e 4c3f a3cb 8e3f 4624 3c3f
000000c0: 09da 473f 2030 5a3f 8481 6c3f 5f75 5d3f
000000d0: 5ea3 853f b3b4 2e3f c1d1 183f 7127 863f
000000e0: 2a77 9d3f a286 573f 318d 853f 31d7 c13f
000000f0: a35d 393f 2862 813f e2a3 c03f ce66 7e3f
00000100: 28d4 2d3f a3c2 4a3f 7722 523f 907b 353f
00000110: 4df5 9a3f e98a 873f 7dfc 843f cb4d 6a3f
00000120: 5981 a83f 13dd 1d3f 67b7 843f bf81 2a3f
00000130: 3bf0 753f bf7e 503f 3dee a03f 7dcd 633f
00000140: 69d7 833f c4aa 623f 13cc a43f a632 383f
00000150: 2a75 0d3f 48f1 b63f a7af b43f ec4f 473f
00000160: eb39 583f ca84 843f 4465 a83e a57b 6b3f
00000170: a9d2 663f eb81 173f 0df0 5c3f ce80 0a3f
00000180: c57c 923f 4432 903f 4301 8b3f 5bc5 6f3f
00000190: e0be 623f 898c f43e 7109 6c3f fdf4 5a3f
000001a0: 2165 653f c1b7 753f 65d2 7a3f 26ec 533f
000001b0: aa52 5d3f 49c6 853f b7bf 2b3f b942 393f
000001c0: 0ae7 833f b0ea 573f c54c 133f 1416 1b3f
000001d0: ef81 603f f6e1 1b3e 19af 253f 58c3 a23f
000001e0: eaa9 8e3f 7e75 f13e f45e 6a3f 8a8d af3f
000001f0: b20e 5b3f 3ee1 853f 32de 883f 8492 7f3f
0.6513383 1.5060958 0.5508735 1.0779998 0.9981996 0.37728357 0.570799 0.84606105
0.6889467 1.3873371 0.81846315 0.4099024 0.9531946 0.8221443 0.9533284 0.62308395
0.61128753 0.95945185 1.0822643 1.2337282 0.56301796 0.46385875 1.11403 1.029286
0.951889 0.5591934 0.89572257 0.7151979 0.6784125 0.68339086 0.70410097 0.84681916
1.2107474 0.7859333 0.6857194 0.8209616 0.9788794 0.8801104 1.048832 0.89617723
0.6429046 0.6689251 1.1406507 0.98607785 1.2572786 0.7971037 1.1155895 0.7349285
0.7806707 0.8522968 0.92385125 0.8650722 1.0440481 0.68244475 0.5969506 1.0480787
1.2301991 0.8418981 1.0433713 1.5143796 0.72408503 1.010808 1.5050013 0.9937562
0.6790185 0.7920324 0.8208384 0.70891666 1.210611 1.0589267 1.0389553 0.9152495
1.3164474 0.6166546 1.036847 0.66604227 0.9606969 0.814434 1.2572705 0.88985425
1.0300113 0.8854182 1.2874779 0.71952283 0.55256903 1.4292383 1.4116105 0.77856326
0.84463376 1.0353024 0.3288976 0.9198554 0.9016519 0.59182614 0.8630379 0.5410279
1.1444327 1.126534 1.085976 0.93660516 0.885725 0.4776347 0.92201906 0.8553007
0.89607435 0.9598351 0.97977287 0.8278221 0.8645426 1.0451137 0.6708941 0.72367436
1.0304883 0.8434248 0.57539016 0.60580564 0.8769826 0.15222916 0.647203 1.2715864
1.1145604 0.47159952 0.91551137 1.3715069 0.855693 1.0459363 1.0692809 0.9983294

net.1.bias f4 [128]
00000000: be29 e13d b562 c3bf 5e71 0bbe e8c4 16bf
00000010: 78e6 4fbf a466 c83d b71a 7d3e 8da7 74bf
00000020: ce3e d1be c3f7 b8bf 9685 d1be fb6a 003d
00000030: 67dd 56bf 01a9 21bf 6ea5 64bf ffa5 09be
00000040: 826e 71bb 0a30 47bf 156a 39bf a132 dcbf
00000050: a2cf 0bbe 1995 033d 467e 89bf cd3f cbbf
00000060: d34a 32bf 8a1a bd3d 5823 90be 6af1 09be
00000070: 0a6e 39be 4ef4 b5be f7da 66be a2a2 2cbf
00000080: 3aa4 89bf b3cd fbbe 47ac a5be 7948 02bf
00000090: ff07 09bf b58d 38bf c79e 6abf da84 42bf
000000a0: 5da1 a3be 70d5 9bbe b898 fcbe c28c afbf
000000b0: ca42 8dbf 5b30 41bd a7fe 74bf 3b5d 9cbe
000000c0: 3fe1 1bbf 7aa9 2bbf aa4d 21bf 92af 89bf
000000d0: 4d2d 71bf b9d4 a4bd d950 573e 9828 8ebf
000000e0: b521 2ebf 3e75 59bf 139b 49bf d879 98bf
000000f0: 4fd6 14bf 10b9 90bf 2fa8 d8bf 7569 84bf
00000100: 7362 bb3d 3833 50be 0162 15be c41f 05be
00000110: f1e9 55bf 38d3 86bf 954c 35bf 6e5f 54bf
00000120: 652b d1bf 91dc 5fbe 26c3 dfbe 0502 17be
00000130: 34e1 70bf 4740 35bf 0674 6cbf 1c30 3fbf
00000140: 4aab 79bf 1853 32bf 3f11 a6bf 9e56 18bf
00000150: d7c0 eebd 448b b3bf ec21 bebf bedf 86be
00000160: 3dfa 51bf c135 31bf f5c7 8a3d 517c 47bf
00000170: bdc2 3cbf 3e4d 31bd e941 51bf f2ae 733e
00000180: e427 83bf 0d62 12bf 1941 5bbf f300 16bf
00000190: 6e77 47bf 7235 a2bc 29e9 febe 390e ffbe
000001a0: 7309 adbe 1075 cdbe 92ef 31bf 716a 31bf
000001b0: 6482 7dbf a36a 41bf c829 2bbd fcdb 86be
000001c0: 90e4 85bf 18d5 08bf 2944 c9be ba75 993d
000001d0: 0a36 cbbe 99a4 3bbf bd93 61be cb0a a1bf
000001e0: 81bf 75bf af8a e8bd 6e79 07bf b5a6 6cbf
000001f0: bbd5 4ebf aa81 90bf 8c45 47bf ec52 5ebf
0.1099429 -1.5264498 -0.13617465 -0.58894205 -0.8121104 0.09785202 0.24717222 -0.9556816
-0.4086823 -1.4450611 -0.4092223 0.031352025 -0.83931583 -0.63148504 -0.89314926 -0.13442229
-0.003683955 -0.77807677 -0.72427493 -1.7202951 -0.13653424 0.032124612 -1.074166 -1.5878845
-0.6964542 0.092335775 -0.28151965 -0.13470998 -0.18108383 -0.35537952 -0.22544466 -0.6743566
-1.0753243 -0.49180374 -0.32358 -0.50891834 -0.53527826 -0.7209123 -0.91648525 -0.75983965
-0.31959048 -0.30436277 -0.49335265 -1.3714831 -1.1036007 -0.047165256 -0.9570107 -0.3053988
-0.60890573 -0.67055476 -0.6300913 -1.0756705 -0.9420975 -0.08048386 0.21026935 -1.1106138
-0.6802018 -0.8494452 -0.7875225 -1.1912184 -0.5813951 -1.1306477 -1.6926326 -1.0344683
0.09149637 -0.20332038 -0.14588167 -0.13000399 -0.8356009 -1.0533209 -0.7081998 -0.82958114
-1.6341368 -0.21861483 -0.43703574 -0.14746864 -0.9409363 -0.70801204 -0.9236454 -0.74682784
-0.9752699 -0.6965804 -1.2974013 -0.5950717 -0.11657875 -1.4026875 -1.4854102 -0.26342577
-0.8202246 -0.69222647 0.0677642 -0.77924067 -0.7373465 -0.043286555 -0.81741196 0.23797205
-1.0246549 -0.57180864 -0.85646206 -0.585952 -0.7791661 -0.019800875 -0.49787262 -0.4981554
-0.33796272 -0.40128374 -0.6950618 -0.6930304 -0.99027085 -0.7555334 -0.041787893 -0.2633971
-1.0460377 -0.53450155 -0.39309815 0.07493158 -0.39689666 -0.7329803 -0.22029014 -1.2581419
-0.95995337 -0.11354577 -0.5291966 -0.92441875 -0.80794877 -1.128957 -0.77840495 -0.8684528

net.1.running_mean f4 [128]
00000000: b7bf 60c0 bde9 953f 5dba 8940 9cdc 1540
00000010: bc20 40c0 4b96 8dc0 c58c 61c0 dbef 92bf
00000020: d6ef 1940 ab4d 23be c0a3 20c0 8ace 7e40
00000030: 7f41 c03d 0003 4440 3c09 b7bf c038 6140
00000040: 17cf 8040 c3f1 2ac0 3062 37c0 a129 0140
00000050: 9920 7240 ab6a 6740 81b2 e53f 6e77 2ec0
00000060: 04a7 333f c812 9bc0 c733 bd3f e903 6dbf
00000070: efdb 1a40 637a 5140 be13 833f 0d51 83bf
00000080: 695e 463f d195 8440 feb3 5b3f fcb0 3140
00000090: e462 85bd 7197 5f40 170b 6d3f 7800 4cc0
000000a0: 5df2 95bf 88f1 0ec0 d5d3 c63f 371a 43c0
000000b0: 5403 2f40 be56 ecbf 0976 1a3f 1bb0 69bf
000000c0: 76be f03e 6219 18c0 765c f4bf d23b de3f
000000d0: 7495 443f 8c1b 05bf f808 cbc0 b0dd 5abe
000000e0: fcc4 93be d322 66bf 3272 67c0 3f21 313d
000000f0: b4f0 2a3e 9666 6c3f 7e20 babf 7959 973e
00000100: 9c6d b3c0 5dc0 ddbf 0c85 8cc0 3db9 d2bf
00000110: 8bac 1140 b425 7dbe b5a3 16c0 023c 63bf
00000120: 6114 4e3e bb83 7940 46a6 733f 953a 9740
00000130: 3646 c33f f8ae b13d e528 043f e76e 7b3f
00000140: 55ca 0940 52ed 2abf 983d 1440 3aae 47bf
00000150: a94b a740 94d2 14c0 4ae9 b73f e83a 2940
00000160: 9143 8cbf b82c 1340 e9be 5440 0293 08c0
00000170: bf78 33c0 a582 5540 e1b1 28c0 b81d 30c0
00000180: 9e31 993f 99dc 62bd d026 92be 39eb 5640
00000190: 4562 15bf 8020 6140 05ed 5c3f 4be4 a33f
000001a0: 61cd 3840 eae5 16bf 50d6 60bf 75e4 14c0
000001b0: db45 4ebf 279d a43f c102 10c0 8871 11bf
000001c0: 4f4b cb3f b1ac 44bf 535f 36c0 858e ea3d
000001d0: 7904 ff3f 001b 853f 4dca 5140 5499 66bf
000001e0: 2354 d1bf 2adf 6a40 27de ba3f b9dc 933f
000001f0: 20c1 d73e c644 1fc0 3acc bb3b d22f 9e3e
-3.5117013 1.1711956 4.3039994 2.34159 -3.001998 -4.4245963 -3.524217 -1.1479448
2.4052634 -0.15947597 -2.5099945 3.9813561 0.093874924 3.062683 -1.4299693 3.5190887
4.0252795 -2.671006 -2.865368 2.0181658 3.7832396 3.6158855 1.79451 -2.7260394
0.7017672 -4.8460426 1.4781426 -0.9258409 2.4196737 3.273095 1.02404 -1.025911
0.7748781 4.143288 0.8582152 2.7764273 -0.065130025 3.4936182 0.92595047 -3.1875286
-1.1714588 -2.233492 1.5533396 -3.048475 2.7345781 -1.8463972 0.6033636 -0.9128434
0.4702031 -2.3765492 -1.9090717 1.7362006 0.7679055 -0.5199516 -6.344845 -0.2137363
-0.28861225 -0.8989689 -3.616345 0.043244597 0.16693383 0.92344034 -1.4541166 0.2956045
-5.60713 -1.732433 -4.391241 -1.646278 2.2761562 -0.24721414 -2.353742 -0.8876344
0.20124961 3.8986652 0.9517559 4.725901 1.5255802 0.08675951 0.516249 0.982161
2.1529744 -0.6676837 2.3162594 -0.78000224 5.227986 -2.3253527 1.4368069 2.6442204
-1.095812 2.2996044 3.3241522 -2.1339726 -2.8042448 3.336099 -2.6358569 -2.751814
1.1968267 -0.05538616 -0.28545237 3.3581069 -0.5835307 3.5176086 0.86299163 1.2804044
2.8875353 -0.5894457 -0.87827015 -2.326444 -0.8057534 1.2860459 -2.250168 -0.5681386
1.5882357 -0.76826006 -2.8495681 0.11452965 1.992324 1.0398865 3.2779725 -0.9007771
-1.6353801 3.6698709 1.4599046 1.1551734 0.4213953 -2.4885726 0.005731133 0.3089586

net.1.running_var f4 [128]
00000000: 3b33 cd3f b29a 203f c109 4a3f 246f 8b3f
00000010: 9f95 713f a2df cc3f bd2a c03f 3003 173f
00000020: 95b5 4b3f 6bd1 513f 9a63 963f 0bf0 a13f
00000030: 46ca 293f 9504 203f 1017 0d3f fc44 8b3f
00000040: 386f 7b3f 071b 9c3f 48ab 583f b620 da3e
00000050: 6346 ad3f 5dd3 7b3f 67d7 fb3e 49e4 003f
00000060: 9291 e13e f23d 983f 9976 823f 29b6 793f
00000070: 2866 8f3f 6c14 953f 1ea4 0b3f 5ec2 5f3f
00000080: 2560 f33e 23b0 393f d9c5 4a3f d47a a83f
00000090: cc09 aa3f 350f d33e f8e0 143f 6521 9d3f
000000a0: ccbd 3e3f 768a 403f 5059 673f 4083 7f3f
000000b0: 42af 943f 8058 7d3f 56e8 b13e 0878 ce3f
000000c0: f0c8 733f a7f7 b13f 3706 2e3f cfc6 303f
000000d0: 91ef 2d3f de63 343f 517a ee3f 5dca 0a3f
000000e0: 1abc 413f 639a c23e 1c6f 303f ebec 0e3f
000000f0: bf32 013f a819 2c3f fdfc da3e fff6 093f
00000100: b97c ac3f 3508 4f3f 7cb1 873f 60be be3f
00000110: 0016 1a3f 5ee3 303f 10e4 383f 8c57 293f
00000120: 31c0 da3e f1ec 963f 29d6 f23e 2909 8c3f
00000130: 4d2c cb3e 41ae 333f 209c 223f 3930 ed3e
00000140: 287f 083f f66f 993f 62a1 623f cd39 2b3f
00000150: 5aeb 9a3f 0e61 163f d5e8 0d3f 0949 8b3f
00000160: 8a0b 863f a55a e93e e880 cc3f fcbc 973f
00000170: 7ba0 8f3f ef1f a83f 42c6 3b3f daaf e33f
00000180: 188a f53e 7572 743f 46b7 613f f66e 123f
00000190: a16e a93e 5da8 953f e01a df3e 0532 2d3f
000001a0: 1f1f b33f b7fb 523f fc3d c93e 2f12 a73f
000001b0: 42f0 0a3f 7e14 773f 1e35 bf3f 1067 ef3e
000001c0: 4ac0 f53e 039d 453f f6c7 303f c9a1 9a3f
000001d0: 3135 823f 64f9 f23e 125a 993f 692a b43e
000001e0: 4b81 133f 44fb 8b3f b268 9e3f 1c86 0a3f
000001f0: c6ba 2d3f faf1 493f bd51 443f bf1b 3b3f
1.6031259 0.62736046 0.78921133 1.0893292 0.9436893 1.6005747 1.5013043 0.5898924
0.7957395 0.8196017 1.1749146 1.265138 0.6632427 0.6250699 0.55113316 1.0880427
0.9821658 1.2195748 0.84636354 0.4260308 1.3537105 0.9836939 0.49187776 0.50348336
0.44056374 1.1893904 1.0192443 0.9754358 1.1203051 1.1646857 0.545473 0.87405956
0.4753429 0.7253439 0.7920814 1.3162484 1.328424 0.4122254 0.58155775 1.2275816
0.7450836 0.75211275 0.90370655 0.99809647 1.1615984 0.98963165 0.3474757 1.6130381
0.9522848 1.3903702 0.67978233 0.6905336 0.67943674 0.70464885 1.8631078 0.5421503
0.75677645 0.38008413 0.6891954 0.5583026 0.5046806 0.6722665 0.4277114 0.5389251
1.3475562 0.808719 1.0601039 1.4901848 0.6018982 0.69096935 0.72222996 0.6614921
0.42724755 1.1791059 0.47429016 1.0940295 0.39682236 0.70187765 0.6351948 0.46325853
0.53319025 1.1987293 0.885275 0.6688507 1.2103074 0.58741844 0.554334 1.0881664
1.0472271 0.4557697 1.5976839 1.1854548 1.122085 1.3134745 0.7334939 1.7788041
0.4795692 0.9548715 0.8817028 0.5720056 0.33092216 1.1692005 0.43575191 0.6765445
1.3993872 0.82415336 0.39305103 1.3052424 0.54272854 0.96515644 1.4938085 0.46758318
0.47998267 0.77192706 0.69055116 1.2080623 1.0172483 0.47455895 1.1980612 0.35188606
0.5761916 1.0936055 1.23757 0.54110885 0.6786312 0.7888485 0.7668722 0.7308921

net.4.weight f4 [64, 128]
00000000: 71d3 bbbe 438d 5b3f c72c c63d 8469 273f
00000010: 339f ebbe 9584 aebe 6d1e 5ebe ed70 f7be
00000020: 2052 c63e ff2a cd3e 580e f3be 78f9 e63c
00000030: 51ff fa3e 0abf 07bf 3f47 f5be 162e cc3e
00000040: 654d ec3e 84cd 07bf a40e 1abf 9e6c 44bf
00000050: 43ff 743e c29e 943e 67dc f93e f59c 8fbf
00000060: 0f94 03bf b2f2 f1be d157 9dbe bc9b e2be
00000070: bbf0 b43e ac8e 173e 2210 7dbe eec4 04bf
00000080: 0d8b 02bf 4a00 053f 7212 cc3e e5cc e93e
00000090: 3ec4 f93e f990 03bf 3c48 073f eadb 0fbf
000000a0: 63cc 2ebf a378 82be e472 b13e 1df5 6bbf
000000b0: eff6 0d3f 950b 48be b6a4 0bbf eccd 65be
000000c0: 8d08 e63e f496 dbbe fa2f 11bf 5b53 b0be
000000d0: 16b5 193f 1b9c e0be 5148 9dbe 0210 21bf
000000e0: 1462 373f e8e0 3cbf 7436 0dbf 34b0 ae3e
000000f0: 3e03 c7be f197 21bf d2af 393f 73e4 3abf
00000100: bd2a e6be 2a80 f2be a707 bcbe 3cc0 8dbe
00000110: dcd7 e33e bf33 2fbf 5fd9 14bf 960c acbe
00000120: 2eb0 71bf c905 b93e d401 7fbe f15a 963e
00000130: 9e40 0dbf 18bc 8cbe f7b3 a03e 0055 c0be
00000140: c356 2c3e f2d3 ffbe 677e 223f 0523 ecbe
00000150: 3e90 e53e 011c d33e 8c14 3c3f 742e e13e
00000160: 9eb6 01bf 87c3 a23e be70 863e 7e9d 0fbf
00000170: 9a42 e3be 0bad 8b3e 4572 3ebf a1da 9cbe
00000180: 5691 43bf 48ee ff3e 726e 9e3e af0e 103f
00000190: e43c 12bf b31f 363e 2f57 e4be bc1b b3be
000001a0: cffd ce3e 58d8 afbe 0a3f 21bf b0f2 ccbe
000001b0: 1f56 f5be 2766 f03e f02b a2be f578 c6bd
000001c0: ce91 ebbe 00b2 7fbe a81d fdbe 8f2b cbbe
000001d0: 2f73 d73e f881 cebc 0fe8 903e f3aa 0f3f
000001e0: a244 013f b03f 0a3f c868 a23e b85b 193f
000001f0: 683c fdbe 64a4 2cbf 7f27 293f 0452 c43e
00000200: 2bf2 03bf 55a5 343f edc7 923e d8ab e83e
00000210: 4efa d1be 1268 64be 6ded 7bbe 4d53 24bf
00000220: dd6b 123f 68c2 2d3f 2a0c d0be f7df 883e
00000230: 2243 cd3e e96b 08bf 484f bbbe adbf 813e
00000240: 0b19 f13e 19b5 f8be ecdf 00bf 1f0a 60bf
00000250: bce4 be3e c86d 403e fa6f 023f 6ff9 69bf
00000260: 608c c5be b0eb cdbe c282 9abe defc 9ebe
00000270: 2831 9d3d d7a7 b23e cb8c c3be 13e2 0dbf
00000280: 5639 41bf 92bd cc3e a323 673e 64b7 283e
00000290: 19a3 9c3e f77a fcbe 50e4 ea3e 04cc e4be
000002a0: be76 8bbd 25d3 c6be ecd0 003f dd4e 5dbf
000002b0: 251e fa3e e243 22bf 17dd 19bf 78d4 87be
000002c0: 5582 d93e 057a cbbe 828d f2be 472e 06bf
000002d0: 9119 3c3f 4477 8ebe e62f a2be 891c 24bf
000002e0: 99a8 c43e e0ff dabe 2fbd 9fbe f7fa ea3e
000002f0: fcd9 02bf 9388 f7be b00d 323f c9c8 01bf
00000300: bae9 9ebe 83a9 b0be ab2e 7dbe 3c4d b2be
00000310: e247 423f 00c9 2cbf 1205 89be fa7f 08bf
00000320: 7966 7ebf 4802 b03e 5278 fbbe 765e a73e
00000330: eed7 f5be 9b92 ccbe 8ec8 043f 8f38 c0be
00000340: 3036 ae3e caef 15bf ae50 0f3f 198d a7be
00000350: b901 cd3e 2e13 293f 707a 033f ff1f 933e
00000360: 7d1e e4be 1c98 3e3e 723f 853e 1df6 e2be
00000370: b1ad 01bf 5333 e83e 8857 50bf 7057 54be
00000380: 6a2e 03bf ef37 d53e e656 463f c007 653e
00000390: 024e 19bf d7b6 aa3e ebaa adbe 9c43 dfbe
000003a0: 53b7 4d3e a579 febe d8d8 31bf ab74 1cbf
000003b0: 5449 c7be 7cf3 c93c a5b0 d1be 4aca a3be
000003c0: 3b17 bebe dc5d 7fbe 1314 c3be cd29 febe
000003d0: 1b24 ba3e 6d05 383e 65e2 fe3e e46f 123f
000003e0: ca4e ff3e 36e5 833e 00dc c93e 6bc5 4d3f
000003f0: 08b7 50bf 85cd 32bf 65cd 3e3f 777f 353f
-0.36684754 0.85762423 0.09676509 0.6539538 -0.46019897 -0.34085527 -0.21691294 -0.48328343
0.3873453 0.40071866 -0.4747188 0.028195128 0.49022916 -0.5302588 -0.4790592 0.3987891
0.46152797 -0.53047967 -0.6017859 -0.76728237 0.239255 0.29027373 0.48800966 -1.1219774
-0.51397794 -0.47255474 -0.3073106 -0.4425944 0.35339913 0.14800519 -0.24713185 -0.5186299
-0.50993425 0.51953566 0.39857823 0.45664135 0.48782533 -0.51393086 0.52844596 -0.5619494
-0.6828062 -0.25482664 0.34657967 -0.9217089 0.55454916 -0.19535668 -0.54548204 -0.22441834
0.449284 -0.42888606 -0.5671383 -0.34438595 0.6004194 -0.438691 -0.30719236 -0.6291505
0.7163403 -0.7378068 -0.55161214 0.34118807 -0.3886966 -0.6312247 0.72533906 -0.73004836
-0.44954482 -0.47363406 -0.36724588 -0.27685726 0.44500625 -0.68438333 -0.5814418 -0.33603352
-0.94409454 0.36137226 -0.24903041 0.29366258 -0.55176723 -0.27487254 0.31387302 -0.3756485
0.16829972 -0.4996639 0.63474125 -0.46120468 0.4483661 0.41232303 0.7346885 0.43980753
-0.50669277 0.317898 0.2625789 -0.5609969 -0.4438675 0.2728046 -0.7439311 -0.3063555
-0.7639364 0.49986482 0.30943638 0.56272405 -0.5712416 0.1778553 -0.44597766 -0.34982097
0.40428016 -0.34344745 -0.62986815 -0.40028906 -0.47917268 0.46952936 -0.31674147 -0.096910395
-0.46009678 -0.24970245 -0.49436688 -0.3968167 0.42080066 -0.025208458 0.28302047 0.5612022
0.5049535 0.5400343 0.31720567 0.59905577 -0.4946015 -0.6743834 0.6607589 0.38343823
-0.51541394 0.70564777 0.28668156 0.45443606 -0.4101128 -0.22305325 -0.2460229 -0.64189607
0.57195836 0.67874765 -0.4063428 0.26733372 0.4009028 -0.5328966 -0.36583924 0.2534155
0.4708942 -0.48575667 -0.5034168 -0.87515444 0.37283885 0.18791878 0.5095211 -0.9139623
-0.3858366 -0.40218878 -0.30177885 -0.31052297 0.076753914 0.34893677 -0.38193354 -0.55423087
-0.7547811 0.3998838 0.22572188 0.16476208 0.30593184 -0.49312565 0.45877314 -0.44686902
-0.06809758 -0.38832965 0.5031879 -0.8644846 0.48851123 -0.6338483 -0.6010298 -0.26529288
0.42482248 -0.3974153 -0.47373587 -0.52414364 0.7347651 -0.27825367 -0.3167717 -0.6410604
0.3840988 -0.42773342 -0.31199023 0.45894596 -0.5111387 -0.48346385 0.69552135 -0.50697
-0.31037694 -0.34504327 -0.24724834 -0.3482455 0.75890934 -0.674942 -0.2676168 -0.53320277
-0.9937511 0.3437674 -0.49115235 0.32689255 -0.48016304 -0.399556 0.5186852 -0.3754315
0.34025717 -0.58569014 0.5598248 -0.32724836 0.40040377 0.6604489 0.513587 0.2873535
-0.4455451 0.18612713 0.26024967 -0.44328395 -0.5065566 0.45351657 -0.8138356 -0.2073648
-0.512427 0.41644236 0.77476346 0.22366238 -0.59884655 0.3334262 -0.33919463 -0.4360627
0.20089464 -0.49702182 -0.694715 -0.6111552 -0.38923132 0.024652235 -0.40955082 -0.31990272
-0.37127098 -0.24938148 -0.38101253 -0.49641266 0.3635567 0.1797082 0.497821 0.5720198
0.498648 0.25760812 0.3942566 0.8037936 -0.81529284 -0.6984485 0.7453216 0.7089762

net.4.bias f4 [64]
00000000: 0988 0cbe 0e87 0c3e 9d00 55bf c5d6 a63e
00000010: cc6a dbbd 3aa3 663e 355d a63e 783b 00bf
00000020: e9bf b03e cf30 fa3e f2ec 0abe 8137 773e
00000030: 3558 0d3d 6783 ebbd 2b52 6bbf 9103 babe
00000040: 95d3 a03e abdf 80bd e539 c1be 22ba 423e
00000050: 9021 57bd 8ba0 003f 3d7c cb3e 6754 123f
00000060: c9e4 16bf f98a 293f e92e 543e cedf ef3e
00000070: 265e 9cbc a30a 9fbe c56a 7a3d 7799 883f
00000080: 72fa 1b3f c03e 12be 7d9b debe f40f ec3e
00000090: 103d 00bf 657d 6fbe 96d2 abbe 3029 6e3f
000000a0: e80f 94bf 4b2f 2bbf 34f6 31be d554 17bf
000000b0: 74ee 9c3e fb9c e23e e174 2ebf 116e 02bf
000000c0: 7484 243f b10e 963e 263b f2be efac 883d
000000d0: f867 633d 152d 293f d539 0ebe bea3 06bf
000000e0: f813 423f cb96 37be dc58 d53d ac65 573d
000000f0: cd0e e5bd 25fc febe 4613 e23e ce71 303f
-0.13723768 0.13723394 -0.8320406 0.3258573 -0.10713729 0.22523203 0.32492986 -0.5009074
0.34521416 0.48865363 -0.1356695 0.24142267 0.03450795 -0.114996724 -0.91922253 -0.36330846
0.31411424 -0.06292661 -0.37739483 0.19016317 -0.052522242 0.5024497 0.39743224 0.5716004
-0.5894285 0.6622768 0.2072102 0.46850437 -0.019087862 -0.31062803 0.06113698 1.0671834
0.60929024 -0.1428175 -0.43478003 0.4610592 -0.50093174 -0.23387678 -0.33559102 0.930316
-1.1567354 -0.6686904 -0.17379075 -0.5911382 0.30650675 0.44260392 -0.68147093 -0.509492
0.6426461 0.29308084 -0.47310752 0.066736095 0.055519074 0.66084415 -0.13889249 -0.525936
0.7581172 -0.17928617 0.10417339 0.052587196 -0.11184464 -0.49801746 0.4415533 0.6892365

net.5.weight f4 [64]
00000000: a289 0842 230c 0942 bcd0 0842 ba01 0942
00000010: ebc0 0842 1334 0942 0fef 0842 3ee3 0842
00000020: 2c02 0942 e4f8 0842 3146 0942 1baf 0842
00000030: d1d7 0842 c324 0942 97cc 0942 832d 0942
00000040: 460f 0942 b5e8 0842 3943 0942 79b1 0942
00000050: 591b 0942 c00e 0942 6102 0942 fdff 0842
00000060: 3086 0942 ba16 0942 b785 0842 a576 0942
00000070: e17c 0842 da1d 0942 35dd 0842 1b0a 0942
00000080: db46 0942 1faf 0942 e10b 0942 89fd 0842
00000090: c414 0942 ffd8 0842 001e 0942 f9d7 0842
000000a0: 9cdc 0842 992e 0942 4c5a 0942 e995 0842
000000b0: c344 0942 1fe4 0842 f513 0942 3579 0942
000000c0: 2e7f 0942 c4a8 0842 fae0 0842 c189 0942
000000d0: be8f 0942 70eb 0842 f77f 0942 3642 0942
000000e0: 9731 0942 8e13 0942 e01e 0942 7822 0942
000000f0: 3e0e 0942 f3f4 0842 7bec 0842 74e7 0842
34.134407 34.261852 34.203842 34.251686 34.188396 34.300854 34.233456 34.221916
34.25212 34.243057 34.318546 34.171 34.21076 34.2859 34.449795 34.294445
34.264915 34.227253 34.315647 34.423313 34.276707 34.264404 34.252323 34.24999
34.381042 34.272194 34.13058 34.365864 34.121952 34.279152 34.216022 34.25987
34.319195 34.421017 34.2616 34.247593 34.27028 34.21191 34.279297 34.21091
34.21544 34.295506 34.33818 34.146397 34.31715 34.222775 34.26949 34.368366
34.3742 34.16481 34.219704 34.384525 34.390373 34.22992 34.374966 34.31466
34.298428 34.269096 34.28015 34.28366 34.26391 34.23921 34.230938 34.22603

net.5.bias f4 [64]
00000000: f735 1042 a565 1042 391d 1042 a341 1042
00000010: 4d21 1042 cc92 1042 d032 1042 a202 1042
00000020: 3609 1042 5022 1042 ef2a 1042 f9f5 0f42
00000030: 303b 1042 1749 1042 9ecd 1042 7a20 1042
00000040: c2f6 0f42 6042 1042 ec2c 1042 0ae1 1042
00000050: 3268 1042 321e 1042 344e 1042 8109 1042
00000060: c685 1042 4467 1042 2422 1042 87c4 1042
00000070: 2cc8 0f42 19f8 0f42 2e2c 1042 c660 1042
00000080: f6a9 1042 0b99 1042 0734 1042 c954 1042
00000090: 2260 1042 230d 1042 4884 1042 0b07 1042
000000a0: 18e8 0f42 ae52 1042 fa8c 1042 9a47 1042
000000b0: ca3e 1042 911f 1042 2879 1042 5aa9 1042
000000c0: e3cd 1042 0f1c 1042 3a0b 1042 f19c 1042
000000d0: 97d8 1042 f034 1042 5282 1042 0a8e 1042
000000e0: 6454 1042 8d0b 1042 0c7c 1042 7d83 1042
000000f0: cf7f 1042 dad7 0f42 8b70 1042 f612 1042
36.0527 36.099262 36.028538 36.0641 36.03252 36.143356 36.04962 36.00257
36.008995 36.03351 36.041927 35.990208 36.0578 36.071377 36.200798 36.031715
35.990974 36.06482 36.04387 36.219765 36.101753 36.029488 36.07637 36.00928
36.13064 36.100845 36.03334 36.19192 35.94548 35.992283 36.043144 36.094505
36.165977 36.149456 36.050808 36.082798 36.09388 36.01283 36.12918 36.006878
35.976654 36.08074 36.137672 36.069923 36.061317 36.030827 36.118317 36.165382
36.20106 36.0274 36.010963 36.153263 36.211514 36.051697 36.127266 36.13871
36.082413 36.01128 36.12114 36.128407 36.124813 35.960793 36.109905 36.018517

net.5.running_mean f4 [64]
00000000: 14dd d9bf 966e a8bf 5db7 05c0 e6d0 75bf
00000010: 5a4d 95bf cc17 abbf 0635 c3bf 14a8 ffbf
00000020: e0f0 75bf 271f 3dbf c106 b5bf bca5 86bf
00000030: 3b44 c8bf a7fb adbf c656 fbbf e0ca f5bf
00000040: 0638 8cbf e531 92bf 83ca ecbf 40c7 66bf
00000050: 0861 b4bf 32a9 b7bf a2b8 50bf 1dd7 2cbf
00000060: 744e 1cc0 45e3 78bf 6299 b3bf d945 87bf
00000070: 5494 98bf eabd c3bf e40f 8fbf 1e79 ca3d
00000080: 1e08 73bf 1d0a c0bf e986 0fc0 2074 70bf
00000090: 66c2 1ac0 9272 abbf cbf2 efbf 029c b6be
000000a0: b99e 28c0 b709 1cc0 f349 85bf 8887 0dc0
000000b0: 51a8 a7bf b5ba 3abf d597 14c0 dfc2 1cc0
000000c0: 381a 12bf bf92 aebf 8f94 05c0 2ea7 98bf
000000d0: 938c d2bf 3e0c edbe f00f a5bf 5245 0dc0
000000e0: 8205 5fbf f650 94bf f8ae c8bf db61 b4bf
000000f0: a742 b4bf eb6b 25c0 1b70 19bf b9ee c1be
-1.7020593 -1.3158748 -2.0893166 -0.9602188 -1.1664231 -1.3366637 -1.5250556 -1.9973168
-0.9607067 -0.7387566 -1.4142686 -1.0519328 -1.5645822 -1.3592423 -1.9635856 -1.9202538
-1.0954597 -1.1421477 -1.8499302 -0.9014778 -1.4092112 -1.4348509 -0.8153173 -0.67515737
-2.4422884 -0.97221786 -1.4031184 -1.0568191 -1.1920266 -1.5292332 -1.1176724 0.098863825
-0.9493426 -1.5003086 -2.2426093 -0.9392719 -2.4181151 -1.3394339 -1.874597 -0.356659
-2.6346877 -2.438093 -1.0413193 -2.2113972 -1.3098241 -0.7294114 -2.321767 -2.449394
-0.57071257 -1.3638533 -2.0871923 -1.1926019 -1.644915 -0.46298403 -1.2895489 -2.207356
-0.8711778 -1.1587207 -1.5678396 -1.4092363 -1.4082841 -2.5847118 -0.59936684 -0.37877443

net.5.running_var f4 [64]
00000000: 801b 8142 441c 7842 ba33 6742 4620 7842
00000010: c55b 5c42 235c 6b42 aad5 7942 1c3b 6e42
00000020: 08e2 6742 20f7 6942 0d3c 7042 1e83 6542
00000030: ba18 8042 ffa8 7442 ed9d 5a42 af8b 6e42
00000040: c7a8 6442 5cca 6042 2473 6942 b921 6742
00000050: 76b5 7242 f53d 7942 774b 5a42 62c9 6442
00000060: 9323 8442 d40c 8242 0b2d 8142 e3b1 6142
00000070: 5fb4 6342 bf55 7242 43da 6142 23d9 5942
00000080: 822f 7642 8122 6842 f335 8142 3454 6242
00000090: fa1a 7642 116c 6842 9c0a 7042 68e6 6042
000000a0: 4f6b 7142 3872 8442 7e90 5342 8f1a 8142
000000b0: d66b 7642 023e 6542 c712 7d42 31a5 8042
000000c0: 749f 6042 5abe 7e42 b689 7042 83a0 5342
000000d0: 8744 7442 4746 5742 9e3f 6642 2027 7742
000000e0: 1af0 6f42 0854 5142 9b9f 7d42 2978 6f42
000000f0: bba0 6d42 43b7 6d42 03e8 6442 18b9 6542
64.55371 62.027603 57.800514 62.031517 55.08962 58.839977 62.458656 59.557724
57.970734 58.491333 60.058643 57.378044 64.048294 61.165035 54.654224 59.63641
57.16482 56.197617 58.362442 57.782932 60.677208 62.310505 54.573696 57.196663
66.06948 65.025055 64.587975 56.423717 56.926144 60.583736 56.463146 54.462048
61.546394 58.033695 64.60537 56.58223 61.526344 58.105534 60.01036 56.225006
60.354794 66.22308 52.891106 64.55187 61.60531 57.310555 63.268337 64.32264
56.155716 63.68589 60.134483 52.90675 61.06692 53.81863 57.562126 61.788208
59.984474 52.33206 63.405865 59.867344 59.406963 59.428967 57.226574 57.430756

net.8.weight f4 [1, 64]
00000000: b87c 0a42 b37a 0a42 c2c6 0a42 42ba 0a42
00000010: 4984 0a42 ad32 0a42 9234 0a42 1699 0a42
00000020: 8fce 0a42 24c1 0a42 39f2 0a42 72f3 0a42
00000030: 63bb 0a42 257d 0a42 ea6c 0a42 a6c7 0a42
00000040: 8126 0b42 a7b5 0a42 93e4 0a42 024d 0a42
00000050: 2da3 0a42 88bd 0a42 d088 0a42 a2f7 0a42
00000060: 8be5 0a42 368c 0a42 d783 0a42 3b2c 0a42
00000070: d0d3 0a42 7c0f 0b42 6fc4 0a42 d089 0a42
00000080: f518 0a42 ff65 0a42 74bc 0a42 975f 0a42
00000090: 6a51 0a42 b9b2 0a42 e053 0a42 5ca4 0a42
000000a0: 6a0e 0b42 6396 0a42 6d74 0a42 5643 0a42
000000b0: 3287 0a42 c305 0b42 0f8f 0a42 e63e 0a42
000000c0: ab4e 0a42 88ca 0a42 6d1a 0b42 208c 0a42
000000d0: 3519 0a42 5cd7 0a42 c046 0a42 0452 0a42
000000e0: 84bf 0a42 6cdd 0a42 1856 0a42 6866 0a42
000000f0: 8b72 0a42 1d0a 0b42 9871 0a42 dee7 0a42
34.621796 34.619823 34.6941 34.681892 34.629185 34.549488 34.55134 34.649498
34.701717 34.688614 34.736546 34.73774 34.682995 34.62221 34.60636 34.69497
34.7876 34.677395 34.723217 34.575203 34.65935 34.68509 34.633606 34.74183
34.724163 34.636925 34.62875 34.543194 34.70685 34.76512 34.69183 34.634583
34.524372 34.599606 34.684036 34.59335 34.579506 34.674534 34.58191 34.660507
34.764076 34.646862 34.613697 34.565758 34.632027 34.755627 34.639706 34.561424
34.576824 34.697784 34.775806 34.63684 34.524616 34.71031 34.56909 34.580093
34.687027 34.716232 34.584076 34.600006 34.61186 34.759876 34.61093 34.726433
