best_model.pth (torch, 83575 bytes, 7 tensors)

net.0.weight f4 [128, 74]
0	0x3da823f3	0.08209982
1	0xbdb2b0ff	-0.087251656
2	0x3d013b7b	0.031550866
3	0x3dab8fae	0.08377014
4	0xbdda1a2d	-0.10649524
5	0xbda16195	-0.078799404
6	0x3dae2ed5	0.08505026
7	0x3d844f70	0.06460464
8	0xbda922f8	-0.08258623
9	0xbd7ce5a3	-0.061742436
10	0xbdeea83a	-0.116531804
11	0xbd9c6135	-0.07635728
12	0x3d232b76	0.03983637
13	0x3d51527e	0.05110406
14	0xbd2f070e	-0.042731337
15	0xbd815173	-0.06314363
16	0x3d11c5f5	0.035589177
17	0x3dc29e6f	0.09502875
18	0xbdfb2960	-0.12263751
19	0xbd0b2162	-0.033967383
20	0xbdb1ab7e	-0.08675288
21	0x3c0025cb	0.007821511
22	0x3d4ae394	0.04953344
23	0xbd0d66c7	-0.034521844
24	0x3d6be1a8	0.05758825
25	0xbdc8d186	-0.098055884
26	0xbde4a283	-0.11163809
27	0xbd2f0197	-0.042726126
28	0xbd7a4d2d	-0.061108757
29	0xbdd431cb	-0.1036106
30	0xbbd06f5d	-0.006360932
31	0x3d19630e	0.03744798
32	0x3d58b058	0.05290255
33	0x3c407271	0.011746035
34	0xbdebd5d8	-0.11515397
35	0x3c21d020	0.009876281
36	0xbd30dade	-0.043177478
37	0x3dc59cce	0.09649049
38	0x3ccb0508	0.024782673
39	0xbdc2e990	-0.09517205
40	0x3ccbc0ed	0.024872268
41	0x3d9d3a82	0.07677175
42	0x3d16f9bc	0.03685926
43	0xbd8b04ba	-0.06788011
44	0xbd3b7172	-0.045762487
45	0x3dbe3b30	0.09288633
46	0xbdbeb369	-0.093115635
47	0x3dd6f79a	0.10496445
48	0xbca988a8	-0.020695046
49	0xbdc9948f	-0.098427884
50	0x3bac8670	0.0052650496
51	0x3d886f07	0.06661802
52	0x3cf1acf0	0.029501408
53	0x3d7e894a	0.062142648
54	0xbd23d8c0	-0.04000163
55	0x3d673eb4	0.056456283
56	0xbd32330c	-0.043505713
57	0xbd8a3c66	-0.06749801
58	0xbd43c108	-0.04779151
59	0x3d9fde00	0.07806015
60	0x3c69ce20	0.014270335
61	0x3d86a2f2	0.06574048
62	0x3d3f7f30	0.046752155
63	0xbdc194c6	-0.094522044
64	0x3b6e7ca0	0.00363902
65	0x3db1460a	0.08655937
66	0x3d0e05a4	0.034673348
67	0x3d94af76	0.07260029
68	0x3cf63fe8	0.03005977
69	0x3d32903f	0.043594595
70	0x3d7bcda5	0.061475415
71	0xbda75d0d	-0.08172045
72	0xbde87afa	-0.11351581
73	0xbdc6531b	-0.0968382
74	0x3e1dedfb	0.15422814
75	0x3c29b31d	0.010357645
76	0x3e06778d	0.13131543
77	0xbd246dbe	-0.04014372
78	0x3db5e32a	0.08881219
79	0xbd5a7851	-0.0533374
80	0x3d76e0b3	0.060272884
81	0xbd1e873d	-0.038703192
82	0xbc388ae4	-0.011263583
83	0x3dee3401	0.11631013
84	0xbd9ca59d	-0.07648776
85	0x3c1d6e7c	0.009608861
86	0xbbdafb2a	-0.006682773
87	0x3e09fe9f	0.13476036
88	0x3d128757	0.0357736
89	0xbd9aeca0	-0.07564664
90	0x3ce5297c	0.027973883
91	0xbd8c4a41	-0.068501
92	0xbbeda79b	-0.007252646
93	0x3d8d6488	0.069039404
94	0x3e56cf7e	0.2097759
95	0xbe121972	-0.14267519
96	0xbdb8d448	-0.090248644
97	0xbd4ecdf5	-0.050489385
98	0xbda9b77f	-0.08286952
99	0xbda28fc9	-0.07937581
100	0xbd10fb14	-0.035395697
101	0x3c4cb8ed	0.012495262
102	0x3d122130	0.03567618
103	0xbd3fc38a	-0.04681734
104	0xbd392907	-0.045205142
105	0xbdb3c5a3	-0.087779306
106	0xbe39f7b6	-0.181609
107	0xbdfd554a	-0.12369783
108	0xbddd0f0d	-0.10793886
109	0xbdebc466	-0.115120694
110	0x3be24b73	0.006905967
111	0xbd229b0a	-0.039698638
112	0xbe64c038	-0.2233895
113	0xbe3d22a1	-0.18470241
114	0xbd43dce4	-0.04781808
115	0xbda4f28d	-0.080540754
116	0xbe3f4c48	-0.18681443
117	0xbd10d1b0	-0.035356224
118	0xbdc3f9de	-0.09569143
119	0xbd8ec25b	-0.06970664
120	0xbd1f3708	-0.03887084
121	0xbddfdfb8	-0.10931343
122	0x3d18f35e	0.037341468
123	0x3d1997e9	0.03749839
124	0x3db3ef85	0.08785919
125	0xbc4c25bf	-0.012460171
126	0xbde7cb97	-0.113181286
127	0xbe230190	-0.15918565
128	0xbd41b425	-0.04729094
129	0x3d937c6b	0.07201465
130	0x3e4cf55c	0.20015472
131	0x3d0759fd	0.033044804
132	0x3d5ffb9f	0.054683324
133	0xbd828392	-0.06372751
134	0xbd99aed3	-0.07504048
135	0xbd257816	-0.040397726
136	0xbb80b008	-0.0039272346
137	0xbc96739c	-0.018365674
138	0x3d93822a	0.07202561
139	0xbd9b4879	-0.075821824
140	0x3d88252a	0.066477135
141	0x3db20dba	0.086940244
142	0x3cae11d9	0.021248745
143	0xbe1a087d	-0.150423
144	0xbd9f49d8	-0.077777565
145	0xbc4bb28e	-0.0124327075
146	0xbd61cc55	-0.055126507
147	0xbd757255	-0.05992349
148	0x3ea6adf1	0.32554582
149	0xbdacafce	-0.084319696
150	0x3d3b2ff7	0.04570004
151	0x3d2b07dd	0.041755546
152	0x3dce118a	0.10061939
153	0x3dcc7465	0.09983138
154	0xbdedebef	-0.116172664
155	0xbdc34e2c	-0.095363945
156	0xbe1e25d9	-0.15444125
157	0x3ec2f464	0.3807708
158	0x3dbce54f	0.09223425
159	0xbe84dc74	-0.25949442
160	0xbe3e106d	-0.18560953
161	0x3dfd198c	0.12358388
162	0x3e2b79e2	0.16745713
163	0xbe0ad0f4	-0.13556272
164	0x3dc26dc7	0.094935946
165	0xbce6077d	-0.028079743
166	0x3c36f8e9	0.011167743
167	0xbcd06694	-0.025439538
168	0x3d52d25a	0.051470138
169	0x3d73c599	0.059514616
170	0x3d6629d2	0.056192227
171	0x3c6139c0	0.013746679
172	0xbded53ba	-0.11588235
173	0xbdcd1364	-0.10013464
174	0xbbf459af	-0.00745698
175	0xbd111015	-0.035415728
176	0x3cc0f735	0.023555377
177	0x3d3a770c	0.04552369
178	0x3b0eabda	0.0021769912
179	0x3d489092	0.048965998
180	0xbdd93382	-0.106055275
181	0xbe0d22b1	-0.13782765
182	0x3c657a90	0.014006272
183	0x3dd8a1a4	0.105777055
184	0xbda82ac2	-0.082112804
185	0xbe290854	-0.16507083
186	0xbde43943	-0.11143734
187	0xbdad491a	-0.08461209
188	0x3d7b0efd	0.06129359
189	0xbed96a62	-0.42463976
190	0x3e154b82	0.14579585
191	0xbd15bc78	-0.03655669
192	0x3e261aa0	0.16221094
193	0xbdea9ade	-0.1145532
194	0xbd94bf8d	-0.07263098
195	0xbd9384f7	-0.072030954
196	0xbd93f172	-0.072237864
197	0x3da747ae	0.08167969
198	0x3d7d8a98	0.06189975
199	0x3d5f3e50	0.054502785
200	0xbe3badc2	-0.18328002
201	0xbe17a18e	-0.14807722
202	0x3c2f2876	0.010690799
203	0x3c86825a	0.016419578
204	0x3d5740d9	0.052552078
205	0xbe7d6229	-0.24744476
206	0x3de71a47	0.11284309
207	0x3d16a0cd	0.036774445
208	0xbd9c868a	-0.07642849
209	0x3ce4eb23	0.027944153
210	0xbda7bf75	-0.081908144
211	0x3d51bb5c	0.05120407
212	0xbcad710c	-0.021172069
213	0xbda8fb96	-0.08251111
214	0x3d50ad9d	0.05094682
215	0xbe06338d	-0.13105603
216	0xbd6dc339	-0.058047507
217	0xbdd962ab	-0.106145225
218	0x3da03b6d	0.078238346
219	0xbe0235fe	-0.12715909
220	0xbc596ad8	-0.013270102
221	0xbdbd3d94	-0.09240261
222	0x3e6b4c5e	0.2297835
223	0x3c4ae201	0.012382985
224	0x3e6d40ce	0.23169252
225	0xbce608d0	-0.028080374
226	0x3db9f1a5	0.09079293
227	0x3dc1a676	0.09455578
228	0xbd9abf79	-0.07556052
229	0xbd6b50d0	-0.057450116
230	0xbde420af	-0.111390464
231	0x3e821f64	0.25414574
232	0x3df80787	0.12110811
233	0xbdad3b29	-0.084585495
234	0xbe2abc2f	-0.16673349
235	0x3e0c66a9	0.13711037
236	0xbce05406	-0.027383815
237	0xbe2be51f	-0.16786622
238	0x3d30b455	0.043140728
239	0x3e5baa2e	0.21451637
240	0xbe128ee8	-0.14312327
241	0x3c53a43e	0.012917576
242	0x3cc3317e	0.02382731
243	0x3e5da408	0.21644604
244	0xbe50473f	-0.20339678
245	0x3dd7c2f8	0.10535234
246	0xbdf496a2	-0.119427934
247	0x3c5de26f	0.0135427555
248	0xbd688ca1	-0.05677474
249	0xbd45710d	-0.048203517
250	0x3cea82ff	0.028626917
251	0xbe21983d	-0.1578073
252	0xbe01ed30	-0.12688136
253	0xbcf83963	-0.030300802
254	0x3c47d5ac	0.012196939
255	0xbe1a476f	-0.15066312

net.0.bias f4 [128]
0	0xbd684080	-0.056702137
1	0xbdabe598	-0.08393401
2	0xbd016e51	-0.031599347
3	0xbd04b14c	-0.032395646
4	0xbe016203	-0.12635045
5	0xbdd2e211	-0.10297025
6	0xbce2e591	-0.027697356
7	0x3c2898b1	0.010290311
8	0xbded8f39	-0.11599583
9	0xbd986f8a	-0.074431494
10	0xbc684874	-0.01417743
11	0xbd8c5bab	-0.06853422
12	0x3e01f34f	0.12690471
13	0xbbe7d3ee	-0.0070748245
14	0xbe2561b1	-0.16150548
15	0xbd524132	-0.051331706
16	0x3d348894	0.044075564
17	0x3de6986e	0.112595424
18	0x3cbe77b3	0.023250436
19	0x3db0ffa3	0.08642509
20	0x3cae6859	0.021289991
21	0xbd95f2bc	-0.073216885
22	0xbde3a490	-0.11115372
23	0x3c08c00b	0.008346568
24	0xbe245120	-0.16046572
25	0x3db30b9b	0.08742448
26	0x3d263c6f	0.040584978
27	0x3daab95a	0.08336134
28	0x3d104828	0.035225064
29	0xbddcad52	-0.10775246
30	0xbce31328	-0.027719095
31	0xbcd5bb16	-0.026090186
32	0xbaf0801b	-0.0018348725
33	0x3dc313f6	0.095252916
34	0xbe19b753	-0.15011339
35	0x3b3790b7	0.002800984
36	0x3d104c92	0.035229273
37	0xbdc02395	-0.09381787
38	0x3d62684f	0.055275258
39	0x3d9924e0	0.074777365
40	0x3e2803dc	0.16407722
41	0xbdfdabe0	-0.12386298
42	0xbd9faa9e	-0.077962145
43	0xbd650da8	-0.055921227
44	0x3d4e89fe	0.05042457
45	0xbd16cb85	-0.036815185
46	0xbdd82bf5	-0.10555259
47	0x3b8cc623	0.0042960807
48	0xbe093d42	-0.13402274
49	0xbdcd797e	-0.100329384
50	0xbe117dfc	-0.14208215
51	0xbe116219	-0.14197578
52	0xbd54c51a	-0.051945783
53	0x3d182ebc	0.037153944
54	0x3dc3a35a	0.09552641
55	0xbd654714	-0.05597599
56	0xb9984a2a	-0.00029046956
57	0x3d9a1591	0.07523645
58	0x3e0f105e	0.13971087
59	0xbd826a1b	-0.06367894
60	0xbde22336	-0.11041872
61	0xba23f9b9	-0.0006255168
62	0xbd812717	-0.06306284
63	0xbdffe8a2	-0.12495543
64	0xbbe22585	-0.0069014453
65	0x3e219117	0.15778004
66	0xbe2ee908	-0.17081082
67	0xbd0b42ff	-0.03399944
68	0xbda4245f	-0.0801475
69	0xbe2ad607	-0.16683207
70	0x3da05f27	0.07830649
71	0x3c0975ed	0.008389932
72	0xba118c80	-0.0005552247
73	0xbe02f18f	-0.1278746
74	0xbd281ec9	-0.041044984
75	0xbe019cff	-0.12657546
76	0x3e07b40c	0.13252276
77	0x3d0eb6c9	0.034842286
78	0xbdf190b5	-0.11795179
79	0x3da8046e	0.0820397
80	0xbd6554e9	-0.05598918
81	0x3d54266c	0.051794454
82	0xbdf579a8	-0.11986095
83	0xbd7d7d1d	-0.061886895
84	0x3d0037b8	0.031303138
85	0xbe0400d2	-0.12890938
86	0x3d68c9db	0.05683313
87	0xbe0a30a7	-0.13495122
88	0x3c96e2bd	0.018418664
89	0x3d916ea2	0.0710118
90	0xbd1c0f84	-0.038100734
91	0x3d3d5424	0.04622282
92	0x3d363368	0.04448262
93	0xbd738448	-0.059452325
94	0xbcdd70a3	-0.027031248
95	0xbc958d77	-0.018255932
96	0xbc4cd907	-0.012502915
97	0x3d9b07dc	0.075698584
98	0xbd90ab73	-0.07063951
99	0xbcb31918	-0.021862552
100	0x3dbaecde	0.0912721
101	0xbd8a3425	-0.06748227
102	0xbd4f7a07	-0.050653484
103	0x3d71a2f5	0.0589933
104	0xbe28c623	-0.16481833
105	0xbd9718ed	-0.07377801
106	0xbe117e41	-0.14208318
107	0xbdcf3ab8	-0.101186216
108	0x3d9e8580	0.07740307
109	0xbe16dd30	-0.14732814
110	0x3acc37e0	0.0015580617
111	0x3de535d1	0.11191905
112	0x3ca141db	0.019684723
113	0xbdc82345	-0.09772352
114	0x3da6206d	0.081116535
115	0xbd8ebc80	-0.06969547
116	0xba847a38	-0.0010107225
117	0xbd2a5aa5	-0.04159035
118	0xbd98c9d7	-0.07460373
119	0xbabc718f	-0.0014377105
120	0xbd964ca1	-0.073388346
121	0xbacee172	-0.0015783741
122	0xbde28f5b	-0.11062499
123	0x3d82a17a	0.063784555
124	0xbd26e264	-0.040743247
125	0xbd4e7fd3	-0.05041487
126	0xbdec2c5e	-0.115319
127	0xbdedf00c	-0.11618051

net.3.weight f4 [64, 128]
0	0x3d4fa120	0.05069077
1	0x3b96a171	0.004596882
2	0xbd8cfe8e	-0.0688449
3	0xbd98d295	-0.0746204
4	0xbaff9733	-0.0019500017
5	0x3bbec030	0.0058212504
6	0x3d09c622	0.03363622
7	0x3e59bf99	0.21264495
8	0x3cc4061a	0.02392869
9	0xbc09a0d5	-0.008400162
10	0x3cef4732	0.029208753
11	0xbe2f45a4	-0.1711641
12	0x3d3cab05	0.046061534
13	0xbcb06e1f	-0.021536885
14	0xbd4ceaa9	-0.050028477
15	0xbcaa0490	-0.020754129
16	0xbd6ad450	-0.057331383
17	0xbca328ca	-0.01991691
18	0xbd9f04ec	-0.07764611
19	0xbcd0b660	-0.025477588
20	0x3d416680	0.047216892
21	0x3d6ed03e	0.058304064
22	0x3cc77a48	0.0243503
23	0xbdd6e131	-0.104921706
24	0xbe156c4a	-0.1459209
25	0xbdaed35f	-0.085364096
26	0x3d8c8d9f	0.068629496
27	0xbcded71d	-0.027202183
28	0x3b960941	0.00457874
29	0x3d6eedaf	0.05833214
30	0x3bf5e452	0.0075040245
31	0xbe38d0a7	-0.18048345
32	0xbd916bf9	-0.07100672
33	0x3d964584	0.07337478
34	0xbea7a721	-0.32744697
35	0x3d737078	0.05943343
36	0x3a75b36d	0.0009372745
37	0xbbc43c2c	-0.0059886184
38	0xbcea32a2	-0.028588597
39	0x3cc3f8ef	0.023922412
40	0xbea666f6	-0.32500428
41	0xbcf04463	-0.029329484
42	0xbd10107f	-0.035171982
43	0x3cb1f9a9	0.021725493
44	0xbd621ddf	-0.05520427
45	0xbe0025ca	-0.12514415
46	0x3cdf1cd6	0.02723543
47	0xbc8fa33e	-0.017533895
48	0xbe6dc073	-0.23217945
49	0xbd9d4321	-0.076788194
50	0xbdcc0827	-0.099624924
51	0xbdf9cb57	-0.12196987
52	0xbda0e874	-0.07856837
53	0x3d22c793	0.03974111
54	0xbc6e7b85	-0.014555817
55	0xbcfb270e	-0.030658271
56	0x3ce1e433	0.027574634
57	0x3d16fcab	0.036862057
58	0x3d959580	0.073039055
59	0x3cb8d6ab	0.0225633
60	0xbd40e3be	-0.047092192
61	0xbd3f058c	-0.04663615
62	0xbd18ccb6	-0.037304603
63	0xbd9e5dba	-0.07732721
64	0x3d49cc45	0.049267072
65	0x3dbc635d	0.091986395
66	0xbdfb86c9	-0.122815676
67	0xbc52122c	-0.012821715
68	0xbba7012d	-0.0050965757
69	0xbe426a24	-0.18985802
70	0x3d8dbb92	0.06920542
71	0xbb8fb4d4	-0.00438557
72	0x3cfa4cac	0.030554138
73	0x3ca33ed8	0.019927427
74	0xbd9f2db4	-0.07772389
75	0xbe45efde	-0.19329783
76	0x3d910c24	0.07082394
77	0xbe13a18a	-0.14417091
78	0xbda4ad12	-0.08040823
79	0x3ea9ca98	0.3316238
80	0x3d36cb26	0.04462733
81	0x3c877158	0.016533539
82	0xbda5ee5b	-0.08102103
83	0xbc733017	-0.0148430085
84	0xbc73c518	-0.014878534
85	0x3d76f675	0.060293633
86	0x3d9b80ab	0.07592901
87	0xbd86ea5e	-0.06587671
88	0xbd8e8288	-0.069584906
89	0x3dc8ac63	0.09798505
90	0xbca2b3c2	-0.019861106
91	0x3bb8b101	0.005636335
92	0x3d6f7587	0.058461692
93	0x3d18a765	0.037269015
94	0xbd5b84db	-0.053593498
95	0xbd416a2b	-0.04722039
96	0xbe889bf9	-0.26681498
97	0xbcd61491	-0.026132854
98	0x3d80b66f	0.062847964
99	0x3d6cec20	0.057842374
100	0xbd0af456	-0.033924423
101	0x3b7b4fde	0.0038347165
102	0x3ceeefac	0.029167019
103	0x3cc498e6	0.023998689
104	0xbceb58cf	-0.02872887
105	0x3d0e6e91	0.034773413
106	0xbd1219f7	-0.035669293
107	0x3dfde45c	0.12397072
108	0xbc96fc13	-0.018430745
109	0xbd6e6ed8	-0.058211178
110	0xbdf8d5e1	-0.12150169
111	0x3d178706	0.036994003
112	0xbd4dec14	-0.05027397
113	0x3d3f353a	0.04668162
114	0xbc2d5b36	-0.010580828
115	0xbda5aeda	-0.08089991
116	0xbc4051a2	-0.011738213
117	0xbb74c5b0	-0.0037349276
118	0x3d15c168	0.0365614
119	0x3bbde73f	0.005795389
120	0xbde176ef	-0.11009013
121	0xbd3e1e26	-0.04641547
122	0x3dad658f	0.084666364
123	0xbb8fb3d7	-0.0043854523
124	0xbcdb9fc1	-0.026809575
125	0xbceb8557	-0.028750105
126	0x3d71aa42	0.05900026
127	0xbe74b5b3	-0.23897438
128	0x3d7cf0d3	0.061753105
129	0x3ca26e73	0.019828057
130	0x3e09678d	0.13418408
131	0x3d3eb902	0.046563156
132	0x3db2d28a	0.087315634
133	0x3d3fafb5	0.046798427
134	0xbd25df99	-0.040496442
135	0xbe2f5ec1	-0.1712599
136	0x3debfc23	0.11522701
137	0xbe10e634	-0.14150316
138	0xbd6a1566	-0.057149313
139	0xbb14ed94	-0.0022724615
140	0xbe37b746	-0.17941007
141	0xbe370cd5	-0.17875989
142	0xbd8161d4	-0.06317487
143	0xbd387caa	-0.045040764
144	0x3ddd62b6	0.10809843
145	0xbe14271a	-0.14468041
146	0xbd44cdaa	-0.0480477
147	0xbdd9fdbd	-0.106441
148	0x3d355fd8	0.044280857
149	0xbdc49e7e	-0.096005425
150	0xbdad7b0a	-0.084707335
151	0x3c4b5d6f	0.012412413
152	0x3d3aff03	0.045653354
153	0xba09c1b8	-0.00052550016
154	0x3d7799bc	0.060449347
155	0xbd9ae1f3	-0.07562628
156	0xbda4795c	-0.0803096
157	0xbda503e1	-0.080573805
158	0x3e951862	0.29120165
159	0x3d9c8982	0.07643415
160	0x3d1ae6a1	0.0378176
161	0xbe077a1b	-0.13230173
162	0x3da45230	0.080234885
163	0x3c4a486a	0.012346366
164	0xbd25cfdf	-0.040481444
165	0x3df6204c	0.12017879
166	0x3d5b25ed	0.053502966
167	0xbcbeb0f7	-0.023277743
168	0xbd14efb5	-0.036361415
169	0x3d1b2095	0.03787287
170	0x3e1d4bcb	0.15360944
171	0x3d4a1858	0.049339622
172	0x3dccb19b	0.09994813
173	0x3e10f854	0.1415723
174	0x3dbc5c3b	0.09197279
175	0x3d3b7302	0.045763977
176	0x3ded483c	0.11586043
177	0x3cd4a1ac	0.025955997
178	0x3e444380	0.19166374
179	0xbd72c9b7	-0.0592744
180	0xbcf13ef7	-0.02944897
181	0xbbbaef1b	-0.005704773
182	0x3afd8bda	0.0019344047
183	0x3d850dbb	0.064967595
184	0x3d493b65	0.04912891
185	0x3cfd1c54	0.030897297
186	0x3bb75758	0.005595129
187	0x3c56126a	0.013065914
188	0xbd881137	-0.066439085
189	0x3d313bfe	0.043270104
190	0x3c1c5703	0.00954223
191	0xbd0d9077	-0.0345616
192	0x3cc7bbc1	0.02438152
193	0xbdab51c7	-0.08365207
194	0x3e00c1c8	0.12573922
195	0x3dd4aff0	0.1038512
196	0x3dde0779	0.10841269
197	0x3e024395	0.12721093
198	0xbd88afc8	-0.066741526
199	0xbcd4b6cb	-0.025966069
200	0x3c52dbe0	0.012869805
201	0xbc7b91a6	-0.0153545495
202	0x3d4e8e40	0.05042863
203	0xbcc279fa	-0.023739804
204	0xbda99bd1	-0.08281673
205	0x3d8c7985	0.068591155
206	0x3da338d9	0.07969827
207	0xbe238332	-0.15968016
208	0x3c8455c8	0.016154185
209	0x3e12307e	0.14276311
210	0x3d9823a2	0.074286714
211	0xbe3c5559	-0.18391933
212	0xbd456cc7	-0.04819944
213	0xbc0ce917	-0.008600495
214	0x3c4f99fc	0.01267099
215	0xbd49d484	-0.049274936
216	0xbd2588a1	-0.040413503
217	0xbdabf543	-0.08396389
218	0x3dca46bd	0.098767735
219	0x3dc4f237	0.09616511
220	0xbe367644	-0.17818552
221	0xbe11a370	-0.14222503
222	0xbd08f457	-0.033436146
223	0xbd296ae3	-0.0413617
224	0x3bf1fb7c	0.0073847156
225	0xbd865d01	-0.06560708
226	0xbce4a975	-0.027912835
227	0x3c85d313	0.016336
228	0x3d5cea74	0.05393453
229	0xbe0d3698	-0.13790357
230	0x3dab5563	0.083658956
231	0xbd846fc7	-0.06466632
232	0x3d941819	0.07231159
233	0xbc8bd7b2	-0.017070625
234	0x3c78beea	0.015182236
235	0xbd17500c	-0.036941573
236	0xbdb18781	-0.086684234
237	0x3dca34ca	0.0987335
238	0xbd67c055	-0.056579906
239	0xbd39957a	-0.045308568
240	0xbc202504	-0.00977445
241	0x3c8acf77	0.01694463
242	0xbc051dc9	-0.008124777
243	0x3dc60fcc	0.09670982
244	0xbd4b2bd7	-0.049602356
245	0x3d9b277a	0.07575889
246	0x3d405776	0.04695841
247	0x3ca382f9	0.019959914
248	0xbc6988b3	-0.014253783
249	0x3d94d43c	0.07267043
250	0x3d907419	0.07053394
251	0x3cc8123f	0.024422763
252	0x3d0c87a1	0.034309033
253	0x3e29e0ff	0.16589735
254	0xbd7c9d5f	-0.06167352
255	0xbd5932c4	-0.05302693

net.3.bias f4 [64]
0	0x3d14dc40	0.03634286
1	0xbcc5550d	-0.024088407
2	0x3d9a634a	0.07538469
3	0xbc0c31fc	-0.008556839
4	0x3c92451a	0.017855216
5	0xbe14859c	-0.14504093
6	0x3b8808e5	0.004151451
7	0xbcc7742e	-0.024347391
8	0x3bd3633e	0.0064510396
9	0x3bba773f	0.005690485
10	0x3d0fb809	0.03508762
11	0xbdcf96a7	-0.101361565
12	0x3cbdd4b1	0.023172708
13	0xbd0c74cc	-0.034291074
14	0x3c26b9ac	0.010176104
15	0xbd5acaf5	-0.05341621
16	0xbcdcf0aa	-0.026970226
17	0x3d6e50dc	0.058182582
18	0xbd97fb77	-0.0742101
19	0xbd1d87e5	-0.038459677
20	0x3ba51689	0.005038087
21	0xbd1f3a5c	-0.038874015
22	0xbce52240	-0.027970433
23	0x3d36054f	0.044438656
24	0xbd555164	-0.052079573
25	0xbd46e144	-0.048554674
26	0x3d8bf72f	0.06834256
27	0xbd42b3f5	-0.0475349
28	0x3c24ae6e	0.010051353
29	0xbdb3d14d	-0.08780155
30	0xbd14687f	-0.036232468
31	0xbd1c984a	-0.03823117
32	0x3d55a7f1	0.052162115
33	0x3d4a18f4	0.049340203
34	0x3d273858	0.040825218
35	0x3a326848	0.00068057
36	0xbdbbe408	-0.09174353
37	0x3d4ebe0a	0.050474204
38	0xbdb64c90	-0.08901322
39	0x3c813c5d	0.015775854
40	0x3bc7407a	0.0060806843
41	0x3dd312b6	0.10306303
42	0xbd34a175	-0.04409929
43	0xbda82317	-0.08209818
44	0xbd093fff	-0.033508297
45	0xbdcadc39	-0.099052854
46	0xbd8514f3	-0.06498136
47	0x3c06181c	0.008184459
48	0xbd7907b6	-0.06079837
49	0xbd876f6e	-0.066130504
50	0x3a43fb26	0.00074760837
51	0xbc17d520	-0.009267122
52	0xbd08f20e	-0.033433966
53	0xbdbd0f62	-0.0923145
54	0x3d93cb69	0.07216532
55	0x3d567029	0.052353058
56	0x3b9d6896	0.0048037274
57	0xbdb349ec	-0.08754334
58	0xbcad932c	-0.021188341
59	0xbbd2f0ac	-0.0064373817
60	0xbcf6e8f6	-0.030140381
61	0x3dd7693b	0.10518118
62	0xbd9e8dcf	-0.077418916
63	0xbd5f0444	-0.054447427

net.6.weight f4 [32, 64]
0	0xbd1faa67	-0.038980868
1	0x3d1a14da	0.03761754
2	0x3e17bcc3	0.148181
3	0xbd72343a	-0.05913184
4	0x3e18b3ad	0.14912291
5	0x3c9921e5	0.01869292
6	0x3d5924a1	0.053013448
7	0xbda2e533	-0.079538725
8	0xbcb6e1af	-0.022324411
9	0x3dd53b31	0.104116805
10	0xbd0c2ad4	-0.03422053
11	0x3dbf1ca0	0.09331632
12	0x3beb9bd7	0.0071902084
13	0x3cb2d69f	0.021830855
14	0xbda5161b	-0.08060857
15	0xbd4a54ae	-0.049397163
16	0xbd4a57e3	-0.04940022
17	0xbd962e3e	-0.07333039
18	0x3c3d0fcc	0.011539411
19	0xbd446918	-0.047951788
20	0x3d057774	0.032584623
21	0xbd976a1b	-0.07393285
22	0xbdf75359	-0.12076444
23	0x3d75f7ed	0.060050894
24	0x3e0d769f	0.13814782
25	0x3dcd258e	0.100169286
26	0xbf20ff00	-0.628891
27	0x3c61f8d1	0.013792233
28	0xbde7bf9f	-0.11315846
29	0x3b91e721	0.0044526015
30	0xbd6a042a	-0.057132877
31	0xbdd5cc8f	-0.10439407
32	0x3e75a1a3	0.23987441
33	0x3d8b6ddf	0.068080656
34	0x3df93ffc	0.12170407
35	0xbe1b545e	-0.15168902
36	0x3dc524b0	0.09626138
37	0x3d0fd29f	0.035112973
38	0x3d0d19cc	0.03444843
39	0x3e8bb85d	0.27289096
40	0xbd84c246	-0.06482367
41	0x3e417db5	0.1889561
42	0x3d630bd4	0.055431202
43	0xbda4af45	-0.080412425
44	0xbdac6321	-0.08417345
45	0x3cabcc09	0.020971315
46	0x3e864c9b	0.2623032
47	0xbe195225	-0.14972742
48	0x3d5e4f8e	0.054275088
49	0x3bca1b1c	0.0061677825
50	0x3d42b8e1	0.047539596
51	0x3dd77f03	0.105222724
52	0xbcfe0831	-0.031009765
53	0x3d76a520	0.06021607
54	0xbd8d2e1a	-0.06893559
55	0x3ddacde7	0.10683804
56	0x3cc4c788	0.024020925
57	0xbb89a74c	-0.0042008515
58	0x3cddcb28	0.027074412
59	0x3e027fdf	0.12744091
60	0x3db211bf	0.08694791
61	0x3e581073	0.21100025
62	0x3d76b697	0.060232725
63	0xbd36343f	-0.04448342
64	0x3d781d07	0.060574558
65	0x3da11435	0.07865182
66	0xbdbc6961	-0.09199787
67	0x3d8b3565	0.067972936
68	0x3c83587c	0.016033404
69	0x3d8773b3	0.06613865
70	0xbd575e40	-0.05258012
71	0x3bfda8b8	0.00774106
72	0xbdde8c09	-0.10866553
73	0xbab0e668	-0.0013496401
74	0xbd462159	-0.048371647
75	0xbb91fcb5	-0.004455174
76	0xbe116c19	-0.14201392
77	0x3d05c62f	0.032659706
78	0x3d3e6caa	0.04649035
79	0x3dcfb0b7	0.101411276
80	0xbd69ef57	-0.057113018
81	0xbcd22472	-0.025652144
82	0x3da8747b	0.08225342
83	0xbd28794c	-0.041131303
84	0x3dc8d82a	0.09806855
85	0xbe0f1507	-0.13972865
86	0x3c9aa357	0.018876715
87	0xbce0f02e	-0.027458277
88	0x3dcb002f	0.099121444
89	0xbe0b5d8b	-0.13609903
90	0x3ba3cc3d	0.0049987123
91	0xbe11ae81	-0.14226724
92	0xbdfd8827	-0.123794846
93	0x3dacbe05	0.08434681
94	0x3cd4ebcf	0.025991349
95	0x3d60e0a5	0.054901738
96	0x3d00ecc7	0.03147581
97	0x3dbcdbb9	0.09221596
98	0x3aedb94c	0.0018136888
99	0x3d958fa4	0.07302788
100	0x3cec43f8	0.028841004
101	0xbe01069b	-0.12600176
102	0xbd35af9e	-0.044356935
103	0xbd737287	-0.059435394
104	0xbd0fb655	-0.035085995
105	0xbe018de0	-0.12651777
106	0x3ca83683	0.020533806
107	0xbc13bd8f	-0.009017362
108	0x3ddc255a	0.10749312
109	0x3d5b00cc	0.053467557
110	0xbd842b64	-0.064535886
111	0x3d911e57	0.07085865
112	0xbcfc50f2	-0.030800316
113	0x3d342736	0.043982707
114	0x3d8512d8	0.06497735
115	0xbe0fb103	-0.14032368
116	0x3d96e145	0.073671855
117	0xbd7529f8	-0.059854478
118	0x3d80c36d	0.062872745
119	0xbe08dc10	-0.13365197
120	0x3c8ba77a	0.017047632
121	0x3d3aa9ec	0.045572206
122	0x3cad58ac	0.021160446
123	0x3d632ed7	0.05546459
124	0xbe13b011	-0.14422633
125	0x3c221c14	0.00989439
126	0xbd3bd53f	-0.045857664
127	0x3dd4206a	0.10357745
128	0xbead8a1e	-0.33894438
129	0x3d87efe2	0.06637551
130	0xbe62176f	-0.22079252
131	0x3e108b67	0.14115678
132	0xbec8284e	-0.3909325
133	0xbef400e9	-0.47656944
134	0x3e167eb0	0.14696765
135	0xbd9922db	-0.07477351
136	0x3a85ec26	0.0010217472
137	0x3e116be1	0.14201309
138	0x3cfaac82	0.030599836
139	0xbdb3c3ca	-0.08777578
140	0x3d868926	0.06569128
141	0x3d4a61aa	0.049409546
142	0xbd0b8029	-0.03405777
143	0xbd0f23a9	-0.034946118
144	0x3e1ca3a4	0.15296799
145	0xbe587a6b	-0.21140449
146	0xbc90dcef	-0.017683474
147	0x3d99e8c8	0.075151026
148	0xbccfd624	-0.025370665
149	0x3e0f81b0	0.14014316
150	0xbcd2d87f	-0.025737999
151	0xbee29ccf	-0.4426026
152	0xbdcc1147	-0.09964233
153	0x3c4f31e6	0.012646174
154	0x3dacb3a2	0.084327
155	0x3e14df02	0.14538196
156	0xbd18b80f	-0.037284907
157	0x3d8523ce	0.0650097
158	0xbd0eacf6	-0.034832917
159	0xbd0cd20c	-0.034380004
160	0xbddc9769	-0.10771067
161	0xbe175d7e	-0.14781758
162	0xbe7f1a24	-0.24912316
163	0x3db643ab	0.088996254
164	0xbd827412	-0.06369795
165	0xbeb606e5	-0.35552135
166	0x3d7c3cb0	0.061581314
167	0xbe102142	-0.14075187
168	0xbc51cc21	-0.012805016
169	0xbe3d039f	-0.18458413
170	0x3e29426f	0.16529249
171	0xbd5df6c4	-0.054190412
172	0xbdcc929e	-0.099889025
173	0xbdcfd4e5	-0.10148028
174	0xbd96e936	-0.073687
175	0x3dcfdc29	0.10149414
176	0x3dd5dc30	0.10442388
177	0x3d8654e5	0.06559161
178	0x3de418a8	0.11137515
179	0xbd45da2e	-0.048303775
180	0x3e10108e	0.14068815
181	0xbd655746	-0.055991434
182	0xbd118bab	-0.03553359
183	0xbf0929d7	-0.5357947
184	0x3c5e698f	0.013574972
185	0x3dc2389f	0.09483456
186	0x3da846bb	0.08216616
187	0xbeaa85f1	-0.33305314
188	0xbcfffc6d	-0.031248296
189	0xbe1c3fcd	-0.15258713
190	0x3d4229c0	0.047403097
191	0x3e137e11	0.1440356
192	0xbd90c292	-0.07068361
193	0x3cfcdae0	0.030866086
194	0xbdaf85d4	-0.085704476
195	0x3d3e5e00	0.046476364
196	0xbd933354	-0.071875244
197	0x3de070c4	0.10959008
198	0xbd31add8	-0.04337868
199	0xbdbe5158	-0.09292859
200	0x3c122b80	0.008921504
201	0xbd8dd5dc	-0.06925556
202	0xbd2df1f8	-0.042467088
203	0xbb5caf00	-0.0033673644
204	0xbc779340	-0.015110791
205	0xbcb3b8d0	-0.021938711
206	0xbdff528e	-0.12466918
207	0x3d39e790	0.04538685
208	0x3df3fcbe	0.11913441
209	0x3d27e87f	0.04099321
210	0x3dca0652	0.09864487
211	0xbdf864f2	-0.12128629
212	0x3d3c596c	0.045983717
213	0xbb11d240	-0.0022250563
214	0x3dc139b0	0.09434831
215	0x3d909f91	0.07061685
216	0xbd707124	-0.05870165
217	0x3c7a48f0	0.015276179
218	0xbd70b060	-0.058761954
219	0xbcab76a8	-0.020930603
220	0xbc00ace0	-0.007853717
221	0x3d935c3a	0.07195325
222	0xbcbff0f8	-0.023430333
223	0x3c9d6258	0.019211933
224	0x3bc3f3bf	0.0059799845
225	0xbd0718c4	-0.032982603
226	0x3d874cfd	0.06606481
227	0xbcfb6ea8	-0.030692413
228	0xbdc2e966	-0.095171735
229	0xbe2391ca	-0.15973583
230	0xbcda8960	-0.026676834
231	0xba0c9d0d	-0.00053639786
232	0x3ce90740	0.02844584
233	0xbde67188	-0.11252123
234	0xbdb79c9c	-0.08965418
235	0x3dbb0802	0.09132387
236	0xbd5db244	-0.054125085
237	0x3dbd9f70	0.09258926
238	0xbd9716de	-0.073774084
239	0xbcc24418	-0.02371411
240	0xbdb24be2	-0.0870588
241	0xbc0688c0	-0.008211315
242	0xbdf48640	-0.11939669
243	0xbda905e6	-0.08253078
244	0xbb96e300	-0.004604697
245	0xbccb2880	-0.024799585
246	0x3d46c590	0.048528254
247	0xbd9a6389	-0.07538516
248	0x3d79fd78	0.061032742
249	0x3deb2cc6	0.11483149
250	0xbbbb08c0	-0.00570783
251	0xbd994158	-0.074831665
252	0x3dd47744	0.103743106
253	0xbdfbaedc	-0.12289211
254	0xbd8c1496	-0.06839864
255	0xbd7ff328	-0.06248775

net.6.bias f4 [32]
0	0xbd19ff27	-0.037596848
1	0xbd6b7d52	-0.05749256
2	0x3da2e067	0.079529576
3	0xbe079391	-0.13239886
4	0x3d51634f	0.0511201
5	0x3c8c47d9	0.017124103
6	0x3d3e8506	0.04651358
7	0x3cf5c86b	0.030002793
8	0xbbfde8ee	-0.0077487146
9	0x3d026cca	0.03184203
10	0xbde7453d	-0.11292503
11	0x3d33653c	0.043797716
12	0x3d8e6bf6	0.06954186
13	0x3c216bf3	0.009852397
14	0x3d6ed903	0.058312427
15	0x3c9f8a80	0.019475222
16	0x3d84ad15	0.06478325
17	0x3d3c1b41	0.04592443
18	0x3db0bc71	0.08629692
19	0x3daca0e9	0.08429129
20	0x3db923ba	0.090400174
21	0x3d347b3a	0.04406283
22	0x3c908257	0.017640276
23	0x3d7002c5	0.05859639
24	0x3e15ad01	0.14616777
25	0x3d37de44	0.044889703
26	0x3d6969dd	0.056985725
27	0x3d31e5bf	0.043431994
28	0x3c12cf73	0.008960593
29	0xbde8b19b	-0.113620006
30	0xbde48c02	-0.11159517
31	0xbe0d1483	-0.13777356

net.9.weight f4 [1, 32]
0	0xbd11aed7	-0.03556713
1	0xbd95ee5c	-0.07320854
2	0x3d8ed4b0	0.06974161
3	0xbcc89b17	-0.024488015
4	0xbd4ea335	-0.050448615
5	0xbe1417b2	-0.14462164
6	0x3d81e204	0.06341937
7	0xbd8110f2	-0.0630206
8	0xbd58c88b	-0.052925628
9	0xbde03e14	-0.109493405
10	0xbdb4d656	-0.08829944
11	0x3daef983	0.08543684
12	0x3df3bcff	0.119012825
13	0xbd918cf2	-0.07106961
14	0xbd51ab9e	-0.051189058
15	0xbd1c436b	-0.038150232
16	0x3db86056	0.090027496
17	0x3e077a60	0.13230276
18	0x3d99e029	0.07513458
19	0x3d94aede	0.07259916
20	0x3da91390	0.082556844
21	0xbd4afe6e	-0.04955905
22	0xbdd6a9e5	-0.104816236
23	0xbd272237	-0.040804114
24	0x3d5ac010	0.05340582
25	0x3dbbf8aa	0.09178288
26	0x3dfc7885	0.12327675
27	0x3df65dd8	0.12029618
28	0xbdefa579	-0.11701483
29	0xbc3566d4	-0.011071879
30	0xbbcff7fb	-0.0063467002
31	0xbda5b066	-0.08090286
